…
I0621 00:56:31.816098   388 net.cpp:39] Initializing net from parameters: 
name: "train_seg_Full_anno"
layers {
  top: "data"
  top: "data2"
  top: "seg-label"
  top: "cls-label"
  name: "data"
  type: SELECT_SEG_BINARY_TWO_FRAMES
  image_data_param {
    source: "./dataset/train.txt"
    batch_size: 4
    shuffle: true
    new_height: 350
    new_width: 350
    root_folder: "./dataset"
    label_type: PIXEL
  }
  include {
    phase: TRAIN
  }
  transform_param {
    mirror: true
    crop_size: 320
    mean_value: 104.008
    mean_value: 116.669
    mean_value: 122.675
  }
  window_cls_data_param {
    label_dim: 20
  }
}
layers {
  bottom: "data"
  top: "conv1_1"
  name: "conv1_1"
  type: CONVOLUTION
  blobs_lr: 0
  blobs_lr: 0
  weight_decay: 1
  weight_decay: 0
  convolution_param {
    num_output: 64
    pad: 1
    kernel_size: 3
  }
  param: "conv1_1p1"
  param: "conv1_1p2"
}
layers {
  bottom: "conv1_1"
  top: "conv1_1"
  name: "relu1_1"
  type: RELU
}
layers {
  bottom: "conv1_1"
  top: "conv1_2"
  name: "conv1_2"
  type: CONVOLUTION
  blobs_lr: 0
  blobs_lr: 0
  weight_decay: 1
  weight_decay: 0
  convolution_param {
    num_output: 64
    pad: 1
    kernel_size: 3
  }
  param: "conv1_2p1"
  param: "conv1_2p2"
}
layers {
  bottom: "conv1_2"
  top: "conv1_2"
  name: "relu1_2"
  type: RELU
}
layers {
  bottom: "conv1_2"
  top: "pool1"
  top: "pool1_mask"
  name: "pool1"
  type: POOLING
  pooling_param {
    pool: MAX
    kernel_size: 2
    stride: 2
  }
}
layers {
  bottom: "pool1"
  top: "conv2_1"
  name: "conv2_1"
  type: CONVOLUTION
  blobs_lr: 0
  blobs_lr: 0
  weight_decay: 1
  weight_decay: 0
  convolution_param {
    num_output: 128
    pad: 1
    kernel_size: 3
  }
  param: "conv2_1p1"
  param: "conv2_1p2"
}
layers {
  bottom: "conv2_1"
  top: "conv2_1"
  name: "relu2_1"
  type: RELU
}
layers {
  bottom: "conv2_1"
  top: "conv2_2"
  name: "conv2_2"
  type: CONVOLUTION
  blobs_lr: 0
  blobs_lr: 0
  weight_decay: 1
  weight_decay: 0
  convolution_param {
    num_output: 128
    pad: 1
    kernel_size: 3
  }
  param: "conv2_2p1"
  param: "conv2_2p2"
}
layers {
  bottom: "conv2_2"
  top: "conv2_2"
  name: "relu2_2"
  type: RELU
}
layers {
  bottom: "conv2_2"
  top: "pool2"
  top: "pool2_mask"
  name: "pool2"
  type: POOLING
  pooling_param {
    pool: MAX
    kernel_size: 2
    stride: 2
  }
}
layers {
  bottom: "pool2"
  top: "conv3_1"
  name: "conv3_1"
  type: CONVOLUTION
  blobs_lr: 0
  blobs_lr: 0
  weight_decay: 1
  weight_decay: 0
  convolution_param {
    num_output: 256
    pad: 1
    kernel_size: 3
  }
  param: "conv3_1p1"
  param: "conv3_1p2"
}
layers {
  bottom: "conv3_1"
  top: "conv3_1"
  name: "relu3_1"
  type: RELU
}
layers {
  bottom: "conv3_1"
  top: "conv3_2"
  name: "conv3_2"
  type: CONVOLUTION
  blobs_lr: 0
  blobs_lr: 0
  weight_decay: 1
  weight_decay: 0
  convolution_param {
    num_output: 256
    pad: 1
    kernel_size: 3
  }
  param: "conv3_2p1"
  param: "conv3_2p2"
}
layers {
  bottom: "conv3_2"
  top: "conv3_2"
  name: "relu3_2"
  type: RELU
}
layers {
  bottom: "conv3_2"
  top: "conv3_3"
  name: "conv3_3"
  type: CONVOLUTION
  blobs_lr: 0
  blobs_lr: 0
  weight_decay: 1
  weight_decay: 0
  convolution_param {
    num_output: 256
    pad: 1
    kernel_size: 3
  }
  param: "conv3_3p1"
  param: "conv3_3p2"
}
layers {
  bottom: "conv3_3"
  top: "conv3_3"
  name: "relu3_3"
  type: RELU
}
layers {
  bottom: "conv3_3"
  top: "pool3"
  top: "pool3_mask"
  name: "pool3"
  type: POOLING
  pooling_param {
    pool: MAX
    kernel_size: 2
    stride: 2
  }
}
layers {
  bottom: "pool3"
  top: "conv4_1"
  name: "conv4_1"
  type: CONVOLUTION
  blobs_lr: 0
  blobs_lr: 0
  weight_decay: 1
  weight_decay: 0
  convolution_param {
    num_output: 512
    pad: 1
    kernel_size: 3
  }
  param: "conv4_1p1"
  param: "conv4_1p2"
}
layers {
  bottom: "conv4_1"
  top: "conv4_1"
  name: "relu4_1"
  type: RELU
}
layers {
  bottom: "conv4_1"
  top: "conv4_2"
  name: "conv4_2"
  type: CONVOLUTION
  blobs_lr: 0
  blobs_lr: 0
  weight_decay: 1
  weight_decay: 0
  convolution_param {
    num_output: 512
    pad: 1
    kernel_size: 3
  }
  param: "conv4_2p1"
  param: "conv4_2p2"
}
layers {
  bottom: "conv4_2"
  top: "conv4_2"
  name: "relu4_2"
  type: RELU
}
layers {
  bottom: "conv4_2"
  top: "conv4_3"
  name: "conv4_3"
  type: CONVOLUTION
  blobs_lr: 0
  blobs_lr: 0
  weight_decay: 1
  weight_decay: 0
  convolution_param {
    num_output: 512
    pad: 1
    kernel_size: 3
  }
  param: "conv4_3p1"
  param: "conv4_3p2"
}
layers {
  bottom: "conv4_3"
  top: "conv4_3"
  name: "relu4_3"
  type: RELU
}
layers {
  bottom: "conv4_3"
  top: "pool4"
  top: "pool4_mask"
  name: "pool4"
  type: POOLING
  pooling_param {
    pool: MAX
    kernel_size: 2
    stride: 2
  }
}
layers {
  bottom: "pool4"
  top: "conv5_1"
  name: "conv5_1"
  type: CONVOLUTION
  blobs_lr: 0
  blobs_lr: 0
  weight_decay: 1
  weight_decay: 0
  convolution_param {
    num_output: 512
    pad: 1
    kernel_size: 3
  }
  param: "conv5_1p1"
  param: "conv5_1p2"
}
layers {
  bottom: "conv5_1"
  top: "conv5_1"
  name: "relu5_1"
  type: RELU
}
layers {
  bottom: "conv5_1"
  top: "conv5_2"
  name: "conv5_2"
  type: CONVOLUTION
  blobs_lr: 0
  blobs_lr: 0
  weight_decay: 1
  weight_decay: 0
  convolution_param {
    num_output: 512
    pad: 1
    kernel_size: 3
  }
  param: "conv5_2p1"
  param: "conv5_2p2"
}
layers {
  bottom: "conv5_2"
  top: "conv5_2"
  name: "relu5_2"
  type: RELU
}
layers {
  bottom: "conv5_2"
  top: "conv5_3"
  name: "conv5_3"
  type: CONVOLUTION
  blobs_lr: 0
  blobs_lr: 0
  weight_decay: 1
  weight_decay: 0
  convolution_param {
    num_output: 512
    pad: 1
    kernel_size: 3
  }
  param: "conv5_3p1"
  param: "conv5_3p2"
}
layers {
  bottom: "conv5_3"
  top: "conv5_3"
  name: "relu5_3"
  type: RELU
}
layers {
  bottom: "conv5_3"
  top: "pool5"
  top: "pool5_mask"
  name: "pool5"
  type: POOLING
  pooling_param {
    pool: MAX
    kernel_size: 2
    stride: 2
  }
}
layers {
  bottom: "data2"
  top: "conv1_1b"
  name: "conv1_1b"
  type: CONVOLUTION
  blobs_lr: 0
  blobs_lr: 0
  weight_decay: 1
  weight_decay: 0
  convolution_param {
    num_output: 64
    pad: 1
    kernel_size: 3
  }
  param: "conv1_1p1"
  param: "conv1_1p2"
}
layers {
  bottom: "conv1_1b"
  top: "conv1_1b"
  name: "relu1_1b"
  type: RELU
}
layers {
  bottom: "conv1_1b"
  top: "conv1_2b"
  name: "conv1_2b"
  type: CONVOLUTION
  blobs_lr: 0
  blobs_lr: 0
  weight_decay: 1
  weight_decay: 0
  convolution_param {
    num_output: 64
    pad: 1
    kernel_size: 3
  }
  param: "conv1_2p1"
  param: "conv1_2p2"
}
layers {
  bottom: "conv1_2b"
  top: "conv1_2b"
  name: "relu1_2b"
  type: RELU
}
layers {
  bottom: "conv1_2b"
  top: "pool1b"
  name: "pool1b"
  type: POOLING
  pooling_param {
    pool: MAX
    kernel_size: 2
    stride: 2
  }
}
layers {
  bottom: "pool1b"
  top: "conv2_1b"
  name: "conv2_1b"
  type: CONVOLUTION
  blobs_lr: 0
  blobs_lr: 0
  weight_decay: 1
  weight_decay: 0
  convolution_param {
    num_output: 128
    pad: 1
    kernel_size: 3
  }
  param: "conv2_1p1"
  param: "conv2_1p2"
}
layers {
  bottom: "conv2_1b"
  top: "conv2_1b"
  name: "relu2_1b"
  type: RELU
}
layers {
  bottom: "conv2_1b"
  top: "conv2_2b"
  name: "conv2_2b"
  type: CONVOLUTION
  blobs_lr: 0
  blobs_lr: 0
  weight_decay: 1
  weight_decay: 0
  convolution_param {
    num_output: 128
    pad: 1
    kernel_size: 3
  }
  param: "conv2_2p1"
  param: "conv2_2p2"
}
layers {
  bottom: "conv2_2b"
  top: "conv2_2b"
  name: "relu2_2b"
  type: RELU
}
layers {
  bottom: "conv2_2b"
  top: "pool2b"
  name: "pool2b"
  type: POOLING
  pooling_param {
    pool: MAX
    kernel_size: 2
    stride: 2
  }
}
layers {
  bottom: "pool2b"
  top: "conv3_1b"
  name: "conv3_1b"
  type: CONVOLUTION
  blobs_lr: 0
  blobs_lr: 0
  weight_decay: 1
  weight_decay: 0
  convolution_param {
    num_output: 256
    pad: 1
    kernel_size: 3
  }
  param: "conv3_1p1"
  param: "conv3_1p2"
}
layers {
  bottom: "conv3_1b"
  top: "conv3_1b"
  name: "relu3_1b"
  type: RELU
}
layers {
  bottom: "conv3_1b"
  top: "conv3_2b"
  name: "conv3_2b"
  type: CONVOLUTION
  blobs_lr: 0
  blobs_lr: 0
  weight_decay: 1
  weight_decay: 0
  convolution_param {
    num_output: 256
    pad: 1
    kernel_size: 3
  }
  param: "conv3_2p1"
  param: "conv3_2p2"
}
layers {
  bottom: "conv3_2b"
  top: "conv3_2b"
  name: "relu3_2b"
  type: RELU
}
layers {
  bottom: "conv3_2b"
  top: "conv3_3b"
  name: "conv3_3b"
  type: CONVOLUTION
  blobs_lr: 0
  blobs_lr: 0
  weight_decay: 1
  weight_decay: 0
  convolution_param {
    num_output: 256
    pad: 1
    kernel_size: 3
  }
  param: "conv3_3p1"
  param: "conv3_3p2"
}
layers {
  bottom: "conv3_3b"
  top: "conv3_3b"
  name: "relu3_3b"
  type: RELU
}
layers {
  bottom: "conv3_3b"
  top: "pool3b"
  name: "pool3b"
  type: POOLING
  pooling_param {
    pool: MAX
    kernel_size: 2
    stride: 2
  }
}
layers {
  bottom: "pool3b"
  top: "conv4_1b"
  name: "conv4_1b"
  type: CONVOLUTION
  blobs_lr: 0
  blobs_lr: 0
  weight_decay: 1
  weight_decay: 0
  convolution_param {
    num_output: 512
    pad: 1
    kernel_size: 3
  }
  param: "conv4_1p1"
  param: "conv4_1p2"
}
layers {
  bottom: "conv4_1b"
  top: "conv4_1b"
  name: "relu4_1b"
  type: RELU
}
layers {
  bottom: "conv4_1b"
  top: "conv4_2b"
  name: "conv4_2b"
  type: CONVOLUTION
  blobs_lr: 0
  blobs_lr: 0
  weight_decay: 1
  weight_decay: 0
  convolution_param {
    num_output: 512
    pad: 1
    kernel_size: 3
  }
  param: "conv4_2p1"
  param: "conv4_2p2"
}
layers {
  bottom: "conv4_2b"
  top: "conv4_2b"
  name: "relu4_2b"
  type: RELU
}
layers {
  bottom: "conv4_2b"
  top: "conv4_3b"
  name: "conv4_3b"
  type: CONVOLUTION
  blobs_lr: 0
  blobs_lr: 0
  weight_decay: 1
  weight_decay: 0
  convolution_param {
    num_output: 512
    pad: 1
    kernel_size: 3
  }
  param: "conv4_3p1"
  param: "conv4_3p2"
}
layers {
  bottom: "conv4_3b"
  top: "conv4_3b"
  name: "relu4_3b"
  type: RELU
}
layers {
  bottom: "conv4_3b"
  top: "pool4b"
  name: "pool4b"
  type: POOLING
  pooling_param {
    pool: MAX
    kernel_size: 2
    stride: 2
  }
}
layers {
  bottom: "pool4b"
  top: "conv5_1b"
  name: "conv5_1b"
  type: CONVOLUTION
  blobs_lr: 0
  blobs_lr: 0
  weight_decay: 1
  weight_decay: 0
  convolution_param {
    num_output: 512
    pad: 1
    kernel_size: 3
  }
  param: "conv5_1p1"
  param: "conv5_1p2"
}
layers {
  bottom: "conv5_1b"
  top: "conv5_1b"
  name: "relu5_1b"
  type: RELU
}
layers {
  bottom: "conv5_1b"
  top: "conv5_2b"
  name: "conv5_2b"
  type: CONVOLUTION
  blobs_lr: 0
  blobs_lr: 0
  weight_decay: 1
  weight_decay: 0
  convolution_param {
    num_output: 512
    pad: 1
    kernel_size: 3
  }
  param: "conv5_2p1"
  param: "conv5_2p2"
}
layers {
  bottom: "conv5_2b"
  top: "conv5_2b"
  name: "relu5_2b"
  type: RELU
}
layers {
  bottom: "conv5_2b"
  top: "conv5_3b"
  name: "conv5_3b"
  type: CONVOLUTION
  blobs_lr: 0
  blobs_lr: 0
  weight_decay: 1
  weight_decay: 0
  convolution_param {
    num_output: 512
    pad: 1
    kernel_size: 3
  }
  param: "conv5_3p1"
  param: "conv5_3p2"
}
layers {
  bottom: "conv5_3b"
  top: "conv5_3b"
  name: "relu5_3b"
  type: RELU
}
layers {
  bottom: "conv5_3b"
  top: "pool5b"
  name: "pool5b"
  type: POOLING
  pooling_param {
    pool: MAX
    kernel_size: 2
    stride: 2
  }
}
layers {
  bottom: "pool5"
  top: "fc6"
  name: "fc6"
  type: CONVOLUTION
  blobs_lr: 0
  blobs_lr: 0
  weight_decay: 1
  weight_decay: 0
  convolution_param {
    num_output: 4096
    kernel_size: 7
  }
}
layers {
  bottom: "fc6"
  top: "fc6"
  top: "relu6-mask"
  name: "relu6"
  type: RELU
}
layers {
  bottom: "fc6"
  top: "fc7"
  name: "fc7"
  type: CONVOLUTION
  blobs_lr: 0
  blobs_lr: 0
  weight_decay: 1
  weight_decay: 0
  convolution_param {
    num_output: 4096
    kernel_size: 1
  }
}
layers {
  bottom: "fc7"
  top: "fc7"
  top: "relu7-mask"
  name: "relu7"
  type: RELU
}
layers {
  bottom: "fc7"
  top: "cls-score"
  name: "cls-score-voc"
  type: CONVOLUTION
  blobs_lr: 0
  blobs_lr: 0
  weight_decay: 1
  weight_decay: 0
  convolution_param {
    num_output: 20
    kernel_size: 1
    weight_filler {
      type: "gaussian"
      std: 0.01
    }
    bias_filler {
      type: "constant"
      value: 0
    }
  }
}
layers {
  bottom: "cls-score"
  top: "cls-score-pooled"
  top: "score-pool-mask"
  name: "avg-pool"
  type: POOLING
  pooling_param {
    pool: MAX
    kernel_size: 4
    stride: 1
  }
}
layers {
  bottom: "cls-score-pooled"
  top: "cls-score-sigmoid"
  name: "cls-score-sigmoid"
  type: SIGMOID
}
layers {
  bottom: "cls-score-sigmoid"
  bottom: "cls-label"
  top: "cls-score-masked"
  name: "cls-score-mask"
  type: ELTWISE
  eltwise_param {
    operation: PROD
  }
}
layers {
  bottom: "cls-score-masked"
  bottom: "score-pool-mask"
  top: "cls-score-unpooled"
  name: "avg-unpool"
  type: UNPOOLING
  unpooling_param {
    unpool: MAX
    kernel_size: 4
    stride: 1
    unpool_size: 4
  }
}
layers {
  bottom: "cls-score-unpooled"
  top: "fc7-bp"
  name: "cls-score-voc-bp"
  type: CONVOLUTION
  blobs_lr: 0
  blobs_lr: 0
  weight_decay: 1
  weight_decay: 0
  convolution_param {
    num_output: 4096
    kernel_size: 1
    weight_filler {
      type: "gaussian"
      std: 0.01
    }
    bias_filler {
      type: "constant"
      value: 0
    }
  }
}
layers {
  bottom: "fc7-bp"
  bottom: "relu7-mask"
  top: "fc7-bp"
  name: "relu7-mask"
  type: ELTWISE
  eltwise_param {
    operation: PROD
  }
}
layers {
  bottom: "fc7-bp"
  top: "fc6-bp"
  name: "fc7-bp"
  type: DECONVOLUTION
  blobs_lr: 0
  blobs_lr: 0
  weight_decay: 1
  weight_decay: 0
  convolution_param {
    num_output: 4096
    kernel_size: 1
  }
}
layers {
  bottom: "fc6-bp"
  bottom: "relu6-mask"
  top: "fc6-bp"
  name: "relu6-mask"
  type: ELTWISE
  eltwise_param {
    operation: PROD
  }
}
layers {
  bottom: "fc6-bp"
  top: "pool5-bp"
  name: "fc6-bp"
  type: DECONVOLUTION
  blobs_lr: 0
  blobs_lr: 0
  weight_decay: 1
  weight_decay: 0
  convolution_param {
    num_output: 512
    kernel_size: 7
  }
}
layers {
  bottom: "pool5"
  top: "pool5-bn"
  name: "pool5-bn"
  type: BN
  bn_param {
    scale_filler {
      type: "constant"
      value: 1
    }
    shift_filler {
      type: "constant"
      value: 0.001
    }
  }
}
layers {
  bottom: "pool5b"
  top: "pool5b-bn"
  name: "pool5b-bn"
  type: BN
  bn_param {
    scale_filler {
      type: "constant"
      value: 1
    }
    shift_filler {
      type: "constant"
      value: 0.001
    }
  }
}
layers {
  bottom: "pool5-bp"
  top: "pool5-bp-bn"
  name: "pool5-bp-bn"
  type: BN
  bn_param {
    scale_filler {
      type: "constant"
      value: 1
    }
    shift_filler {
      type: "constant"
      value: 0.001
    }
  }
}
layers {
  bottom: "pool5-bn"
  bottom: "pool5b-bn"
  bottom: "pool5-bp-bn"
  top: "pool5-concat"
  name: "pool5-concat"
  type: CONCAT
}
layers {
  bottom: "pool5-concat"
  top: "fc6-seg"
  name: "fc6-seg"
  type: CONVOLUTION
  blobs_lr: 1
  blobs_lr: 2
  weight_decay: 1
  weight_decay: 0
  convolution_param {
    num_output: 2048
    kernel_size: 7
    weight_filler {
      type: "gaussian"
      std: 0.01
    }
    bias_filler {
      type: "constant"
      value: 0
    }
  }
}
layers {
  bottom: "fc6-seg"
  top: "fc6-seg"
  name: "bnfc6-seg"
  type: BN
  bn_param {
    scale_filler {
      type: "constant"
      value: 1
    }
    shift_filler {
      type: "constant"
      value: 0.001
    }
  }
}
layers {
  bottom: "fc6-seg"
  top: "fc6-seg"
  name: "relu6-seg"
  type: RELU
}
layers {
  bottom: "fc6-seg"
  top: "fc7-seg"
  name: "fc7-seg"
  type: CONVOLUTION
  blobs_lr: 1
  blobs_lr: 2
  weight_decay: 1
  weight_decay: 0
  convolution_param {
    num_output: 2048
    kernel_size: 1
    weight_filler {
      type: "gaussian"
      std: 0.01
    }
    bias_filler {
      type: "constant"
      value: 0
    }
  }
}
layers {
  bottom: "fc7-seg"
  top: "fc7-seg"
  name: "bnfc7-seg"
  type: BN
  bn_param {
    scale_filler {
      type: "constant"
      value: 1
    }
    shift_filler {
      type: "constant"
      value: 0.001
    }
  }
}
layers {
  bottom: "fc7-seg"
  top: "fc7-seg"
  name: "relu7-seg"
  type: RELU
}
layers {
  bottom: "fc7-seg"
  top: "fc6-deconv"
  name: "fc6-deconv"
  type: DECONVOLUTION
  blobs_lr: 1
  blobs_lr: 2
  weight_decay: 1
  weight_decay: 0
  convolution_param {
    num_output: 512
    kernel_size: 7
    weight_filler {
      type: "gaussian"
      std: 0.01
    }
    bias_filler {
      type: "constant"
      value: 0
    }
  }
}
layers {
  bottom: "fc6-deconv"
  top: "fc6-deconv"
  name: "fc6-deconv-bn"
  type: BN
  bn_param {
    scale_filler {
      type: "constant"
      value: 1
    }
    shift_filler {
      type: "constant"
      value: 0.001
    }
  }
}
layers {
  bottom: "fc6-deconv"
  top: "fc6-deconv"
  name: "fc6-deconv-relu"
  type: RELU
}
layers {
  bottom: "fc6-deconv"
  bottom: "pool5_mask"
  top: "unpool5"
  name: "unpool5"
  type: UNPOOLING
  unpooling_param {
    unpool: MAX
    kernel_size: 2
    stride: 2
    unpool_size: 20
  }
}
layers {
  bottom: "unpool5"
  top: "deconv5_1"
  name: "deconv5_1"
  type: DECONVOLUTION
  blobs_lr: 1
  blobs_lr: 2
  weight_decay: 1
  weight_decay: 0
  convolution_param {
    num_output: 512
    pad: 1
    kernel_size: 3
    weight_filler {
      type: "gaussian"
      std: 0.01
    }
    bias_filler {
      type: "constant"
      value: 0
    }
  }
}
layers {
  bottom: "deconv5_1"
  top: "deconv5_1"
  name: "debn5_1"
  type: BN
  bn_param {
    scale_filler {
      type: "constant"
      value: 1
    }
    shift_filler {
      type: "constant"
      value: 0.001
    }
  }
}
layers {
  bottom: "deconv5_1"
  top: "deconv5_1"
  name: "derelu5_1"
  type: RELU
}
layers {
  bottom: "deconv5_1"
  top: "deconv5_2"
  name: "deconv5_2"
  type: DECONVOLUTION
  blobs_lr: 1
  blobs_lr: 2
  weight_decay: 1
  weight_decay: 0
  convolution_param {
    num_output: 512
    pad: 1
    kernel_size: 3
    weight_filler {
      type: "gaussian"
      std: 0.01
    }
    bias_filler {
      type: "constant"
      value: 0
    }
  }
}
layers {
  bottom: "deconv5_2"
  top: "deconv5_2"
  name: "debn5_2"
  type: BN
  bn_param {
    scale_filler {
      type: "constant"
      value: 1
    }
    shift_filler {
      type: "constant"
      value: 0.001
    }
  }
}
layers {
  bottom: "deconv5_2"
  top: "deconv5_2"
  name: "derelu5_2"
  type: RELU
}
layers {
  bottom: "deconv5_2"
  top: "deconv5_3"
  name: "deconv5_3"
  type: DECONVOLUTION
  blobs_lr: 1
  blobs_lr: 2
  weight_decay: 1
  weight_decay: 0
  convolution_param {
    num_output: 512
    pad: 1
    kernel_size: 3
    weight_filler {
      type: "gaussian"
      std: 0.01
    }
    bias_filler {
      type: "constant"
      value: 0
    }
  }
}
layers {
  bottom: "deconv5_3"
  top: "deconv5_3"
  name: "debn5_3"
  type: BN
  bn_param {
    scale_filler {
      type: "constant"
      value: 1
    }
    shift_filler {
      type: "constant"
      value: 0.001
    }
  }
}
layers {
  bottom: "deconv5_3"
  top: "deconv5_3"
  name: "derelu5_3"
  type: RELU
}
layers {
  bottom: "deconv5_3"
  bottom: "pool4_mask"
  top: "unpool4"
  name: "unpool4"
  type: UNPOOLING
  unpooling_param {
    unpool: MAX
    kernel_size: 2
    stride: 2
    unpool_size: 40
  }
}
layers {
  bottom: "unpool4"
  top: "deconv4_1"
  name: "deconv4_1"
  type: DECONVOLUTION
  blobs_lr: 1
  blobs_lr: 2
  weight_decay: 1
  weight_decay: 0
  convolution_param {
    num_output: 512
    pad: 1
    kernel_size: 3
    weight_filler {
      type: "gaussian"
      std: 0.01
    }
    bias_filler {
      type: "constant"
      value: 0
    }
  }
}
layers {
  bottom: "deconv4_1"
  top: "deconv4_1"
  name: "debn4_1"
  type: BN
  bn_param {
    scale_filler {
      type: "constant"
      value: 1
    }
    shift_filler {
      type: "constant"
      value: 0.001
    }
  }
}
layers {
  bottom: "deconv4_1"
  top: "deconv4_1"
  name: "derelu4_1"
  type: RELU
}
layers {
  bottom: "deconv4_1"
  top: "deconv4_2"
  name: "deconv4_2"
  type: DECONVOLUTION
  blobs_lr: 1
  blobs_lr: 2
  weight_decay: 1
  weight_decay: 0
  convolution_param {
    num_output: 512
    pad: 1
    kernel_size: 3
    weight_filler {
      type: "gaussian"
      std: 0.01
    }
    bias_filler {
      type: "constant"
      value: 0
    }
  }
}
layers {
  bottom: "deconv4_2"
  top: "deconv4_2"
  name: "debn4_2"
  type: BN
  bn_param {
    scale_filler {
      type: "constant"
      value: 1
    }
    shift_filler {
      type: "constant"
      value: 0.001
    }
  }
}
layers {
  bottom: "deconv4_2"
  top: "deconv4_2"
  name: "derelu4_2"
  type: RELU
}
layers {
  bottom: "deconv4_2"
  top: "deconv4_3"
  name: "deconv4_3"
  type: DECONVOLUTION
  blobs_lr: 1
  blobs_lr: 2
  weight_decay: 1
  weight_decay: 0
  convolution_param {
    num_output: 256
    pad: 1
    kernel_size: 3
    weight_filler {
      type: "gaussian"
      std: 0.01
    }
    bias_filler {
      type: "constant"
      value: 0
    }
  }
}
layers {
  bottom: "deconv4_3"
  top: "deconv4_3"
  name: "debn4_3"
  type: BN
  bn_param {
    scale_filler {
      type: "constant"
      value: 1
    }
    shift_filler {
      type: "constant"
      value: 0.001
    }
  }
}
layers {
  bottom: "deconv4_3"
  top: "deconv4_3"
  name: "derelu4_3"
  type: RELU
}
layers {
  bottom: "deconv4_3"
  bottom: "pool3_mask"
  top: "unpool3"
  name: "unpool3"
  type: UNPOOLING
  unpooling_param {
    unpool: MAX
    kernel_size: 2
    stride: 2
    unpool_size: 80
  }
}
layers {
  bottom: "unpool3"
  top: "deconv3_1"
  name: "deconv3_1"
  type: DECONVOLUTION
  blobs_lr: 1
  blobs_lr: 2
  weight_decay: 1
  weight_decay: 0
  convolution_param {
    num_output: 256
    pad: 1
    kernel_size: 3
    weight_filler {
      type: "gaussian"
      std: 0.01
    }
    bias_filler {
      type: "constant"
      value: 0
    }
  }
}
layers {
  bottom: "deconv3_1"
  top: "deconv3_1"
  name: "debn3_1"
  type: BN
  bn_param {
    scale_filler {
      type: "constant"
      value: 1
    }
    shift_filler {
      type: "constant"
      value: 0.001
    }
  }
}
layers {
  bottom: "deconv3_1"
  top: "deconv3_1"
  name: "derelu3_1"
  type: RELU
}
layers {
  bottom: "deconv3_1"
  top: "deconv3_2"
  name: "deconv3_2"
  type: DECONVOLUTION
  blobs_lr: 1
  blobs_lr: 2
  weight_decay: 1
  weight_decay: 0
  convolution_param {
    num_output: 256
    pad: 1
    kernel_size: 3
    weight_filler {
      type: "gaussian"
      std: 0.01
    }
    bias_filler {
      type: "constant"
      value: 0
    }
  }
}
layers {
  bottom: "deconv3_2"
  top: "deconv3_2"
  name: "debn3_2"
  type: BN
  bn_param {
    scale_filler {
      type: "constant"
      value: 1
    }
    shift_filler {
      type: "constant"
      value: 0.001
    }
  }
}
layers {
  bottom: "deconv3_2"
  top: "deconv3_2"
  name: "derelu3_2"
  type: RELU
}
layers {
  bottom: "deconv3_2"
  top: "deconv3_3"
  name: "deconv3_3"
  type: DECONVOLUTION
  blobs_lr: 1
  blobs_lr: 2
  weight_decay: 1
  weight_decay: 0
  convolution_param {
    num_output: 128
    pad: 1
    kernel_size: 3
    weight_filler {
      type: "gaussian"
      std: 0.01
    }
    bias_filler {
      type: "constant"
      value: 0
    }
  }
}
layers {
  bottom: "deconv3_3"
  top: "deconv3_3"
  name: "debn3_3"
  type: BN
  bn_param {
    scale_filler {
      type: "constant"
      value: 1
    }
    shift_filler {
      type: "constant"
      value: 0.001
    }
  }
}
layers {
  bottom: "deconv3_3"
  top: "deconv3_3"
  name: "derelu3_3"
  type: RELU
}
layers {
  bottom: "deconv3_3"
  bottom: "pool2_mask"
  top: "unpool2"
  name: "unpool2"
  type: UNPOOLING
  unpooling_param {
    unpool: MAX
    kernel_size: 2
    stride: 2
    unpool_size: 160
  }
}
layers {
  bottom: "unpool2"
  top: "deconv2_1"
  name: "deconv2_1"
  type: DECONVOLUTION
  blobs_lr: 1
  blobs_lr: 2
  weight_decay: 1
  weight_decay: 0
  convolution_param {
    num_output: 128
    pad: 1
    kernel_size: 3
    weight_filler {
      type: "gaussian"
      std: 0.01
    }
    bias_filler {
      type: "constant"
      value: 0
    }
  }
}
layers {
  bottom: "deconv2_1"
  top: "deconv2_1"
  name: "debn2_1"
  type: BN
  bn_param {
    scale_filler {
      type: "constant"
      value: 1
    }
    shift_filler {
      type: "constant"
      value: 0.001
    }
  }
}
layers {
  bottom: "deconv2_1"
  top: "deconv2_1"
  name: "derelu2_1"
  type: RELU
}
layers {
  bottom: "deconv2_1"
  top: "deconv2_2"
  name: "deconv2_2"
  type: DECONVOLUTION
  blobs_lr: 1
  blobs_lr: 2
  weight_decay: 1
  weight_decay: 0
  convolution_param {
    num_output: 64
    pad: 1
    kernel_size: 3
    weight_filler {
      type: "gaussian"
      std: 0.01
    }
    bias_filler {
      type: "constant"
      value: 0
    }
  }
}
layers {
  bottom: "deconv2_2"
  top: "deconv2_2"
  name: "debn2_2"
  type: BN
  bn_param {
    scale_filler {
      type: "constant"
      value: 1
    }
    shift_filler {
      type: "constant"
      value: 0.001
    }
  }
}
layers {
  bottom: "deconv2_2"
  top: "deconv2_2"
  name: "derelu2_2"
  type: RELU
}
layers {
  bottom: "deconv2_2"
  bottom: "pool1_mask"
  top: "unpool1"
  name: "unpool1"
  type: UNPOOLING
  unpooling_param {
    unpool: MAX
    kernel_size: 2
    stride: 2
    unpool_size: 320
  }
}
layers {
  bottom: "unpool1"
  top: "deconv1_1"
  name: "deconv1_1"
  type: DECONVOLUTION
  blobs_lr: 1
  blobs_lr: 2
  weight_decay: 1
  weight_decay: 0
  convolution_param {
    num_output: 64
    pad: 1
    kernel_size: 3
    weight_filler {
      type: "gaussian"
      std: 0.01
    }
    bias_filler {
      type: "constant"
      value: 0
    }
  }
}
layers {
  bottom: "deconv1_1"
  top: "deconv1_1"
  name: "debn1_1"
  type: BN
  bn_param {
    scale_filler {
      type: "constant"
      value: 1
    }
    shift_filler {
      type: "constant"
      value: 0.001
    }
  }
}
layers {
  bottom: "deconv1_1"
  top: "deconv1_1"
  name: "derelu1_1"
  type: RELU
}
layers {
  bottom: "deconv1_1"
  top: "deconv1_2"
  name: "deconv1_2"
  type: DECONVOLUTION
  blobs_lr: 1
  blobs_lr: 2
  weight_decay: 1
  weight_decay: 0
  convolution_param {
    num_output: 64
    pad: 1
    kernel_size: 3
    weight_filler {
      type: "gaussian"
      std: 0.01
    }
    bias_filler {
      type: "constant"
      value: 0
    }
  }
}
layers {
  bottom: "deconv1_2"
  top: "deconv1_2"
  name: "debn1_2"
  type: BN
  bn_param {
    scale_filler {
      type: "constant"
      value: 1
    }
    shift_filler {
      type: "constant"
      value: 0.001
    }
  }
}
layers {
  bottom: "deconv1_2"
  top: "deconv1_2"
  name: "derelu1_2"
  type: RELU
}
layers {
  bottom: "deconv1_2"
  top: "seg-score"
  name: "seg-score-voc"
  type: CONVOLUTION
  blobs_lr: 1
  blobs_lr: 2
  weight_decay: 1
  weight_decay: 0
  convolution_param {
    num_output: 2
    kernel_size: 1
    weight_filler {
      type: "gaussian"
      std: 0.01
    }
    bias_filler {
      type: "constant"
      value: 0
    }
  }
}
layers {
  bottom: "seg-score"
  bottom: "seg-label"
  top: "seg-loss"
  name: "seg-loss"
  type: SOFTMAX_LOSS
  loss_param {
    ignore_label: 255
  }
}
state {
  phase: TRAIN
}
I0621 00:56:31.821674   388 layer_factory.hpp:78] Creating layer data
I0621 00:56:31.821712   388 net.cpp:69] Creating Layer data
I0621 00:56:31.821723   388 net.cpp:358] data -> data
I0621 00:56:31.821748   388 net.cpp:358] data -> data2
I0621 00:56:31.821763   388 net.cpp:358] data -> seg-label
I0621 00:56:31.821774   388 net.cpp:358] data -> cls-label
I0621 00:56:31.821785   388 net.cpp:98] Setting up data
I0621 00:56:31.821795   388 select_seg_binary_two_frames_layer.cpp:47] Opening file ./dataset/train.txt
I0621 00:56:31.908946   388 select_seg_binary_two_frames_layer.cpp:86] Shuffling data
I0621 00:56:31.919474   388 select_seg_binary_two_frames_layer.cpp:91] A total of 22590 images.
I0621 00:56:32.094297   388 select_seg_binary_two_frames_layer.cpp:146] output data size: 4,3,320,320
I0621 00:56:32.094372   388 select_seg_binary_two_frames_layer.cpp:150] output data2 size: 4,3,320,320
I0621 00:56:32.094383   388 select_seg_binary_two_frames_layer.cpp:154] output label size: 4,1,320,320
I0621 00:56:32.094393   388 select_seg_binary_two_frames_layer.cpp:158] output class label size: 4,20,1,1
I0621 00:56:32.097066   388 net.cpp:105] Top shape: 4 3 320 320 (1228800)
I0621 00:56:32.097090   388 net.cpp:105] Top shape: 4 3 320 320 (1228800)
I0621 00:56:32.097100   388 net.cpp:105] Top shape: 4 1 320 320 (409600)
I0621 00:56:32.097108   388 net.cpp:105] Top shape: 4 20 1 1 (80)
I0621 00:56:32.097118   388 layer_factory.hpp:78] Creating layer conv1_1
I0621 00:56:32.097138   388 net.cpp:69] Creating Layer conv1_1
I0621 00:56:32.097148   388 net.cpp:396] conv1_1 <- data
I0621 00:56:32.097167   388 net.cpp:358] conv1_1 -> conv1_1
I0621 00:56:32.097182   388 net.cpp:98] Setting up conv1_1
I0621 00:56:32.097542   388 net.cpp:105] Top shape: 4 64 320 320 (26214400)
I0621 00:56:32.097563   388 layer_factory.hpp:78] Creating layer relu1_1
I0621 00:56:32.097581   388 net.cpp:69] Creating Layer relu1_1
I0621 00:56:32.097591   388 net.cpp:396] relu1_1 <- conv1_1
I0621 00:56:32.097604   388 net.cpp:347] relu1_1 -> conv1_1 (in-place)
I0621 00:56:32.097615   388 net.cpp:98] Setting up relu1_1
I0621 00:56:32.097623   388 net.cpp:105] Top shape: 4 64 320 320 (26214400)
I0621 00:56:32.097632   388 layer_factory.hpp:78] Creating layer conv1_2
I0621 00:56:32.097645   388 net.cpp:69] Creating Layer conv1_2
I0621 00:56:32.097652   388 net.cpp:396] conv1_2 <- conv1_1
I0621 00:56:32.097663   388 net.cpp:358] conv1_2 -> conv1_2
I0621 00:56:32.097674   388 net.cpp:98] Setting up conv1_2
I0621 00:56:32.097970   388 net.cpp:105] Top shape: 4 64 320 320 (26214400)
I0621 00:56:32.097988   388 layer_factory.hpp:78] Creating layer relu1_2
I0621 00:56:32.098000   388 net.cpp:69] Creating Layer relu1_2
I0621 00:56:32.098007   388 net.cpp:396] relu1_2 <- conv1_2
I0621 00:56:32.098018   388 net.cpp:347] relu1_2 -> conv1_2 (in-place)
I0621 00:56:32.098029   388 net.cpp:98] Setting up relu1_2
I0621 00:56:32.098037   388 net.cpp:105] Top shape: 4 64 320 320 (26214400)
I0621 00:56:32.098045   388 layer_factory.hpp:78] Creating layer pool1
I0621 00:56:32.098057   388 net.cpp:69] Creating Layer pool1
I0621 00:56:32.098067   388 net.cpp:396] pool1 <- conv1_2
I0621 00:56:32.098076   388 net.cpp:358] pool1 -> pool1
I0621 00:56:32.098088   388 net.cpp:358] pool1 -> pool1_mask
I0621 00:56:32.098099   388 net.cpp:98] Setting up pool1
I0621 00:56:32.098119   388 net.cpp:105] Top shape: 4 64 160 160 (6553600)
I0621 00:56:32.098129   388 net.cpp:105] Top shape: 4 64 160 160 (6553600)
I0621 00:56:32.098137   388 layer_factory.hpp:78] Creating layer conv2_1
I0621 00:56:32.098148   388 net.cpp:69] Creating Layer conv2_1
I0621 00:56:32.098156   388 net.cpp:396] conv2_1 <- pool1
I0621 00:56:32.098167   388 net.cpp:358] conv2_1 -> conv2_1
I0621 00:56:32.098179   388 net.cpp:98] Setting up conv2_1
I0621 00:56:32.098458   388 net.cpp:105] Top shape: 4 128 160 160 (13107200)
I0621 00:56:32.098475   388 layer_factory.hpp:78] Creating layer relu2_1
I0621 00:56:32.098487   388 net.cpp:69] Creating Layer relu2_1
I0621 00:56:32.098496   388 net.cpp:396] relu2_1 <- conv2_1
I0621 00:56:32.098506   388 net.cpp:347] relu2_1 -> conv2_1 (in-place)
I0621 00:56:32.098516   388 net.cpp:98] Setting up relu2_1
I0621 00:56:32.098525   388 net.cpp:105] Top shape: 4 128 160 160 (13107200)
I0621 00:56:32.098532   388 layer_factory.hpp:78] Creating layer conv2_2
I0621 00:56:32.098546   388 net.cpp:69] Creating Layer conv2_2
I0621 00:56:32.098554   388 net.cpp:396] conv2_2 <- conv2_1
I0621 00:56:32.098564   388 net.cpp:358] conv2_2 -> conv2_2
I0621 00:56:32.098575   388 net.cpp:98] Setting up conv2_2
I0621 00:56:32.099019   388 net.cpp:105] Top shape: 4 128 160 160 (13107200)
I0621 00:56:32.099036   388 layer_factory.hpp:78] Creating layer relu2_2
I0621 00:56:32.099047   388 net.cpp:69] Creating Layer relu2_2
I0621 00:56:32.099056   388 net.cpp:396] relu2_2 <- conv2_2
I0621 00:56:32.099076   388 net.cpp:347] relu2_2 -> conv2_2 (in-place)
I0621 00:56:32.099104   388 net.cpp:98] Setting up relu2_2
I0621 00:56:32.099119   388 net.cpp:105] Top shape: 4 128 160 160 (13107200)
I0621 00:56:32.099128   388 layer_factory.hpp:78] Creating layer pool2
I0621 00:56:32.099138   388 net.cpp:69] Creating Layer pool2
I0621 00:56:32.099145   388 net.cpp:396] pool2 <- conv2_2
I0621 00:56:32.099155   388 net.cpp:358] pool2 -> pool2
I0621 00:56:32.099167   388 net.cpp:358] pool2 -> pool2_mask
I0621 00:56:32.099179   388 net.cpp:98] Setting up pool2
I0621 00:56:32.099189   388 net.cpp:105] Top shape: 4 128 80 80 (3276800)
I0621 00:56:32.099197   388 net.cpp:105] Top shape: 4 128 80 80 (3276800)
I0621 00:56:32.099205   388 layer_factory.hpp:78] Creating layer conv3_1
I0621 00:56:32.099215   388 net.cpp:69] Creating Layer conv3_1
I0621 00:56:32.099223   388 net.cpp:396] conv3_1 <- pool2
I0621 00:56:32.099234   388 net.cpp:358] conv3_1 -> conv3_1
I0621 00:56:32.099244   388 net.cpp:98] Setting up conv3_1
I0621 00:56:32.100122   388 net.cpp:105] Top shape: 4 256 80 80 (6553600)
I0621 00:56:32.100143   388 layer_factory.hpp:78] Creating layer relu3_1
I0621 00:56:32.100154   388 net.cpp:69] Creating Layer relu3_1
I0621 00:56:32.100163   388 net.cpp:396] relu3_1 <- conv3_1
I0621 00:56:32.100173   388 net.cpp:347] relu3_1 -> conv3_1 (in-place)
I0621 00:56:32.100183   388 net.cpp:98] Setting up relu3_1
I0621 00:56:32.100191   388 net.cpp:105] Top shape: 4 256 80 80 (6553600)
I0621 00:56:32.100199   388 layer_factory.hpp:78] Creating layer conv3_2
I0621 00:56:32.100209   388 net.cpp:69] Creating Layer conv3_2
I0621 00:56:32.100217   388 net.cpp:396] conv3_2 <- conv3_1
I0621 00:56:32.100227   388 net.cpp:358] conv3_2 -> conv3_2
I0621 00:56:32.100239   388 net.cpp:98] Setting up conv3_2
I0621 00:56:32.101662   388 net.cpp:105] Top shape: 4 256 80 80 (6553600)
I0621 00:56:32.101682   388 layer_factory.hpp:78] Creating layer relu3_2
I0621 00:56:32.101693   388 net.cpp:69] Creating Layer relu3_2
I0621 00:56:32.101702   388 net.cpp:396] relu3_2 <- conv3_2
I0621 00:56:32.101714   388 net.cpp:347] relu3_2 -> conv3_2 (in-place)
I0621 00:56:32.101724   388 net.cpp:98] Setting up relu3_2
I0621 00:56:32.101732   388 net.cpp:105] Top shape: 4 256 80 80 (6553600)
I0621 00:56:32.101740   388 layer_factory.hpp:78] Creating layer conv3_3
I0621 00:56:32.101750   388 net.cpp:69] Creating Layer conv3_3
I0621 00:56:32.101759   388 net.cpp:396] conv3_3 <- conv3_2
I0621 00:56:32.101769   388 net.cpp:358] conv3_3 -> conv3_3
I0621 00:56:32.101780   388 net.cpp:98] Setting up conv3_3
I0621 00:56:32.104729   388 net.cpp:105] Top shape: 4 256 80 80 (6553600)
I0621 00:56:32.104779   388 layer_factory.hpp:78] Creating layer relu3_3
I0621 00:56:32.104797   388 net.cpp:69] Creating Layer relu3_3
I0621 00:56:32.104809   388 net.cpp:396] relu3_3 <- conv3_3
I0621 00:56:32.104821   388 net.cpp:347] relu3_3 -> conv3_3 (in-place)
I0621 00:56:32.104833   388 net.cpp:98] Setting up relu3_3
I0621 00:56:32.104842   388 net.cpp:105] Top shape: 4 256 80 80 (6553600)
I0621 00:56:32.104851   388 layer_factory.hpp:78] Creating layer pool3
I0621 00:56:32.104862   388 net.cpp:69] Creating Layer pool3
I0621 00:56:32.104871   388 net.cpp:396] pool3 <- conv3_3
I0621 00:56:32.104882   388 net.cpp:358] pool3 -> pool3
I0621 00:56:32.104894   388 net.cpp:358] pool3 -> pool3_mask
I0621 00:56:32.104909   388 net.cpp:98] Setting up pool3
I0621 00:56:32.104921   388 net.cpp:105] Top shape: 4 256 40 40 (1638400)
I0621 00:56:32.104931   388 net.cpp:105] Top shape: 4 256 40 40 (1638400)
I0621 00:56:32.104939   388 layer_factory.hpp:78] Creating layer conv4_1
I0621 00:56:32.104951   388 net.cpp:69] Creating Layer conv4_1
I0621 00:56:32.104960   388 net.cpp:396] conv4_1 <- pool3
I0621 00:56:32.104972   388 net.cpp:358] conv4_1 -> conv4_1
I0621 00:56:32.104985   388 net.cpp:98] Setting up conv4_1
I0621 00:56:32.108927   388 net.cpp:105] Top shape: 4 512 40 40 (3276800)
I0621 00:56:32.108974   388 layer_factory.hpp:78] Creating layer relu4_1
I0621 00:56:32.108991   388 net.cpp:69] Creating Layer relu4_1
I0621 00:56:32.109035   388 net.cpp:396] relu4_1 <- conv4_1
I0621 00:56:32.109052   388 net.cpp:347] relu4_1 -> conv4_1 (in-place)
I0621 00:56:32.109072   388 net.cpp:98] Setting up relu4_1
I0621 00:56:32.109086   388 net.cpp:105] Top shape: 4 512 40 40 (3276800)
I0621 00:56:32.109096   388 layer_factory.hpp:78] Creating layer conv4_2
I0621 00:56:32.109112   388 net.cpp:69] Creating Layer conv4_2
I0621 00:56:32.109127   388 net.cpp:396] conv4_2 <- conv4_1
I0621 00:56:32.109144   388 net.cpp:358] conv4_2 -> conv4_2
I0621 00:56:32.109161   388 net.cpp:98] Setting up conv4_2
I0621 00:56:32.113557   388 net.cpp:105] Top shape: 4 512 40 40 (3276800)
I0621 00:56:32.113600   388 layer_factory.hpp:78] Creating layer relu4_2
I0621 00:56:32.113615   388 net.cpp:69] Creating Layer relu4_2
I0621 00:56:32.113626   388 net.cpp:396] relu4_2 <- conv4_2
I0621 00:56:32.113639   388 net.cpp:347] relu4_2 -> conv4_2 (in-place)
I0621 00:56:32.113651   388 net.cpp:98] Setting up relu4_2
I0621 00:56:32.113661   388 net.cpp:105] Top shape: 4 512 40 40 (3276800)
I0621 00:56:32.113668   388 layer_factory.hpp:78] Creating layer conv4_3
I0621 00:56:32.113679   388 net.cpp:69] Creating Layer conv4_3
I0621 00:56:32.113688   388 net.cpp:396] conv4_3 <- conv4_2
I0621 00:56:32.113698   388 net.cpp:358] conv4_3 -> conv4_3
I0621 00:56:32.113709   388 net.cpp:98] Setting up conv4_3
I0621 00:56:32.120000   388 net.cpp:105] Top shape: 4 512 40 40 (3276800)
I0621 00:56:32.120054   388 layer_factory.hpp:78] Creating layer relu4_3
I0621 00:56:32.120069   388 net.cpp:69] Creating Layer relu4_3
I0621 00:56:32.120080   388 net.cpp:396] relu4_3 <- conv4_3
I0621 00:56:32.120093   388 net.cpp:347] relu4_3 -> conv4_3 (in-place)
I0621 00:56:32.120105   388 net.cpp:98] Setting up relu4_3
I0621 00:56:32.120115   388 net.cpp:105] Top shape: 4 512 40 40 (3276800)
I0621 00:56:32.120123   388 layer_factory.hpp:78] Creating layer pool4
I0621 00:56:32.120134   388 net.cpp:69] Creating Layer pool4
I0621 00:56:32.120142   388 net.cpp:396] pool4 <- conv4_3
I0621 00:56:32.120153   388 net.cpp:358] pool4 -> pool4
I0621 00:56:32.120169   388 net.cpp:358] pool4 -> pool4_mask
I0621 00:56:32.120182   388 net.cpp:98] Setting up pool4
I0621 00:56:32.120193   388 net.cpp:105] Top shape: 4 512 20 20 (819200)
I0621 00:56:32.120201   388 net.cpp:105] Top shape: 4 512 20 20 (819200)
I0621 00:56:32.120209   388 layer_factory.hpp:78] Creating layer conv5_1
I0621 00:56:32.120220   388 net.cpp:69] Creating Layer conv5_1
I0621 00:56:32.120229   388 net.cpp:396] conv5_1 <- pool4
I0621 00:56:32.120241   388 net.cpp:358] conv5_1 -> conv5_1
I0621 00:56:32.120252   388 net.cpp:98] Setting up conv5_1
I0621 00:56:32.126261   388 net.cpp:105] Top shape: 4 512 20 20 (819200)
I0621 00:56:32.126309   388 layer_factory.hpp:78] Creating layer relu5_1
I0621 00:56:32.126323   388 net.cpp:69] Creating Layer relu5_1
I0621 00:56:32.126334   388 net.cpp:396] relu5_1 <- conv5_1
I0621 00:56:32.126349   388 net.cpp:347] relu5_1 -> conv5_1 (in-place)
I0621 00:56:32.126361   388 net.cpp:98] Setting up relu5_1
I0621 00:56:32.126371   388 net.cpp:105] Top shape: 4 512 20 20 (819200)
I0621 00:56:32.126379   388 layer_factory.hpp:78] Creating layer conv5_2
I0621 00:56:32.126392   388 net.cpp:69] Creating Layer conv5_2
I0621 00:56:32.126400   388 net.cpp:396] conv5_2 <- conv5_1
I0621 00:56:32.126411   388 net.cpp:358] conv5_2 -> conv5_2
I0621 00:56:32.126423   388 net.cpp:98] Setting up conv5_2
I0621 00:56:32.133908   388 net.cpp:105] Top shape: 4 512 20 20 (819200)
I0621 00:56:32.133960   388 layer_factory.hpp:78] Creating layer relu5_2
I0621 00:56:32.133980   388 net.cpp:69] Creating Layer relu5_2
I0621 00:56:32.133991   388 net.cpp:396] relu5_2 <- conv5_2
I0621 00:56:32.134003   388 net.cpp:347] relu5_2 -> conv5_2 (in-place)
I0621 00:56:32.134017   388 net.cpp:98] Setting up relu5_2
I0621 00:56:32.134027   388 net.cpp:105] Top shape: 4 512 20 20 (819200)
I0621 00:56:32.134034   388 layer_factory.hpp:78] Creating layer conv5_3
I0621 00:56:32.134047   388 net.cpp:69] Creating Layer conv5_3
I0621 00:56:32.134054   388 net.cpp:396] conv5_3 <- conv5_2
I0621 00:56:32.134093   388 net.cpp:358] conv5_3 -> conv5_3
I0621 00:56:32.134106   388 net.cpp:98] Setting up conv5_3
I0621 00:56:32.138439   388 net.cpp:105] Top shape: 4 512 20 20 (819200)
I0621 00:56:32.138469   388 layer_factory.hpp:78] Creating layer relu5_3
I0621 00:56:32.138481   388 net.cpp:69] Creating Layer relu5_3
I0621 00:56:32.138491   388 net.cpp:396] relu5_3 <- conv5_3
I0621 00:56:32.138502   388 net.cpp:347] relu5_3 -> conv5_3 (in-place)
I0621 00:56:32.138514   388 net.cpp:98] Setting up relu5_3
I0621 00:56:32.138522   388 net.cpp:105] Top shape: 4 512 20 20 (819200)
I0621 00:56:32.138531   388 layer_factory.hpp:78] Creating layer pool5
I0621 00:56:32.138541   388 net.cpp:69] Creating Layer pool5
I0621 00:56:32.138550   388 net.cpp:396] pool5 <- conv5_3
I0621 00:56:32.138561   388 net.cpp:358] pool5 -> pool5
I0621 00:56:32.138573   388 net.cpp:358] pool5 -> pool5_mask
I0621 00:56:32.138586   388 net.cpp:98] Setting up pool5
I0621 00:56:32.138597   388 net.cpp:105] Top shape: 4 512 10 10 (204800)
I0621 00:56:32.138605   388 net.cpp:105] Top shape: 4 512 10 10 (204800)
I0621 00:56:32.138613   388 layer_factory.hpp:78] Creating layer pool5_pool5_0_split
I0621 00:56:32.138633   388 net.cpp:69] Creating Layer pool5_pool5_0_split
I0621 00:56:32.138643   388 net.cpp:396] pool5_pool5_0_split <- pool5
I0621 00:56:32.138653   388 net.cpp:358] pool5_pool5_0_split -> pool5_pool5_0_split_0
I0621 00:56:32.138664   388 net.cpp:358] pool5_pool5_0_split -> pool5_pool5_0_split_1
I0621 00:56:32.138675   388 net.cpp:98] Setting up pool5_pool5_0_split
I0621 00:56:32.138685   388 net.cpp:105] Top shape: 4 512 10 10 (204800)
I0621 00:56:32.138695   388 net.cpp:105] Top shape: 4 512 10 10 (204800)
I0621 00:56:32.138706   388 layer_factory.hpp:78] Creating layer conv1_1b
I0621 00:56:32.138717   388 net.cpp:69] Creating Layer conv1_1b
I0621 00:56:32.138725   388 net.cpp:396] conv1_1b <- data2
I0621 00:56:32.138737   388 net.cpp:358] conv1_1b -> conv1_1b
I0621 00:56:32.138748   388 net.cpp:98] Setting up conv1_1b
I0621 00:56:32.139013   388 net.cpp:105] Top shape: 4 64 320 320 (26214400)
I0621 00:56:32.139029   388 net.cpp:438] Sharing parameters 'conv1_1p1' owned by layer 'conv1_1', param index 0
I0621 00:56:32.139051   388 net.cpp:438] Sharing parameters 'conv1_1p2' owned by layer 'conv1_1', param index 1
I0621 00:56:32.139072   388 layer_factory.hpp:78] Creating layer relu1_1b
I0621 00:56:32.139084   388 net.cpp:69] Creating Layer relu1_1b
I0621 00:56:32.139094   388 net.cpp:396] relu1_1b <- conv1_1b
I0621 00:56:32.139113   388 net.cpp:347] relu1_1b -> conv1_1b (in-place)
I0621 00:56:32.139124   388 net.cpp:98] Setting up relu1_1b
I0621 00:56:32.139133   388 net.cpp:105] Top shape: 4 64 320 320 (26214400)
I0621 00:56:32.139142   388 layer_factory.hpp:78] Creating layer conv1_2b
I0621 00:56:32.139153   388 net.cpp:69] Creating Layer conv1_2b
I0621 00:56:32.139160   388 net.cpp:396] conv1_2b <- conv1_1b
I0621 00:56:32.139170   388 net.cpp:358] conv1_2b -> conv1_2b
I0621 00:56:32.139180   388 net.cpp:98] Setting up conv1_2b
I0621 00:56:32.141109   388 net.cpp:105] Top shape: 4 64 320 320 (26214400)
I0621 00:56:32.141165   388 net.cpp:438] Sharing parameters 'conv1_2p1' owned by layer 'conv1_2', param index 0
I0621 00:56:32.141178   388 net.cpp:438] Sharing parameters 'conv1_2p2' owned by layer 'conv1_2', param index 1
I0621 00:56:32.141190   388 layer_factory.hpp:78] Creating layer relu1_2b
I0621 00:56:32.141206   388 net.cpp:69] Creating Layer relu1_2b
I0621 00:56:32.141217   388 net.cpp:396] relu1_2b <- conv1_2b
I0621 00:56:32.141229   388 net.cpp:347] relu1_2b -> conv1_2b (in-place)
I0621 00:56:32.141242   388 net.cpp:98] Setting up relu1_2b
I0621 00:56:32.141252   388 net.cpp:105] Top shape: 4 64 320 320 (26214400)
I0621 00:56:32.141259   388 layer_factory.hpp:78] Creating layer pool1b
I0621 00:56:32.141270   388 net.cpp:69] Creating Layer pool1b
I0621 00:56:32.141278   388 net.cpp:396] pool1b <- conv1_2b
I0621 00:56:32.141289   388 net.cpp:358] pool1b -> pool1b
I0621 00:56:32.141302   388 net.cpp:98] Setting up pool1b
I0621 00:56:32.141345   388 net.cpp:105] Top shape: 4 64 160 160 (6553600)
I0621 00:56:32.141355   388 layer_factory.hpp:78] Creating layer conv2_1b
I0621 00:56:32.141366   388 net.cpp:69] Creating Layer conv2_1b
I0621 00:56:32.141376   388 net.cpp:396] conv2_1b <- pool1b
I0621 00:56:32.141386   388 net.cpp:358] conv2_1b -> conv2_1b
I0621 00:56:32.141404   388 net.cpp:98] Setting up conv2_1b
I0621 00:56:32.141636   388 net.cpp:105] Top shape: 4 128 160 160 (13107200)
I0621 00:56:32.141659   388 net.cpp:438] Sharing parameters 'conv2_1p1' owned by layer 'conv2_1', param index 0
I0621 00:56:32.141670   388 net.cpp:438] Sharing parameters 'conv2_1p2' owned by layer 'conv2_1', param index 1
I0621 00:56:32.141680   388 layer_factory.hpp:78] Creating layer relu2_1b
I0621 00:56:32.141690   388 net.cpp:69] Creating Layer relu2_1b
I0621 00:56:32.141700   388 net.cpp:396] relu2_1b <- conv2_1b
I0621 00:56:32.141710   388 net.cpp:347] relu2_1b -> conv2_1b (in-place)
I0621 00:56:32.141721   388 net.cpp:98] Setting up relu2_1b
I0621 00:56:32.141729   388 net.cpp:105] Top shape: 4 128 160 160 (13107200)
I0621 00:56:32.141738   388 layer_factory.hpp:78] Creating layer conv2_2b
I0621 00:56:32.141752   388 net.cpp:69] Creating Layer conv2_2b
I0621 00:56:32.141760   388 net.cpp:396] conv2_2b <- conv2_1b
I0621 00:56:32.141772   388 net.cpp:358] conv2_2b -> conv2_2b
I0621 00:56:32.141785   388 net.cpp:98] Setting up conv2_2b
I0621 00:56:32.142158   388 net.cpp:105] Top shape: 4 128 160 160 (13107200)
I0621 00:56:32.142202   388 net.cpp:438] Sharing parameters 'conv2_2p1' owned by layer 'conv2_2', param index 0
I0621 00:56:32.142215   388 net.cpp:438] Sharing parameters 'conv2_2p2' owned by layer 'conv2_2', param index 1
I0621 00:56:32.142225   388 layer_factory.hpp:78] Creating layer relu2_2b
I0621 00:56:32.142240   388 net.cpp:69] Creating Layer relu2_2b
I0621 00:56:32.142248   388 net.cpp:396] relu2_2b <- conv2_2b
I0621 00:56:32.142261   388 net.cpp:347] relu2_2b -> conv2_2b (in-place)
I0621 00:56:32.142272   388 net.cpp:98] Setting up relu2_2b
I0621 00:56:32.142280   388 net.cpp:105] Top shape: 4 128 160 160 (13107200)
I0621 00:56:32.142289   388 layer_factory.hpp:78] Creating layer pool2b
I0621 00:56:32.142299   388 net.cpp:69] Creating Layer pool2b
I0621 00:56:32.142308   388 net.cpp:396] pool2b <- conv2_2b
I0621 00:56:32.142318   388 net.cpp:358] pool2b -> pool2b
I0621 00:56:32.142330   388 net.cpp:98] Setting up pool2b
I0621 00:56:32.142341   388 net.cpp:105] Top shape: 4 128 80 80 (3276800)
I0621 00:56:32.142350   388 layer_factory.hpp:78] Creating layer conv3_1b
I0621 00:56:32.142362   388 net.cpp:69] Creating Layer conv3_1b
I0621 00:56:32.142370   388 net.cpp:396] conv3_1b <- pool2b
I0621 00:56:32.142381   388 net.cpp:358] conv3_1b -> conv3_1b
I0621 00:56:32.142392   388 net.cpp:98] Setting up conv3_1b
I0621 00:56:32.144515   388 net.cpp:105] Top shape: 4 256 80 80 (6553600)
I0621 00:56:32.144584   388 net.cpp:438] Sharing parameters 'conv3_1p1' owned by layer 'conv3_1', param index 0
I0621 00:56:32.144598   388 net.cpp:438] Sharing parameters 'conv3_1p2' owned by layer 'conv3_1', param index 1
I0621 00:56:32.144611   388 layer_factory.hpp:78] Creating layer relu3_1b
I0621 00:56:32.144624   388 net.cpp:69] Creating Layer relu3_1b
I0621 00:56:32.144635   388 net.cpp:396] relu3_1b <- conv3_1b
I0621 00:56:32.144646   388 net.cpp:347] relu3_1b -> conv3_1b (in-place)
I0621 00:56:32.144659   388 net.cpp:98] Setting up relu3_1b
I0621 00:56:32.144668   388 net.cpp:105] Top shape: 4 256 80 80 (6553600)
I0621 00:56:32.144676   388 layer_factory.hpp:78] Creating layer conv3_2b
I0621 00:56:32.144688   388 net.cpp:69] Creating Layer conv3_2b
I0621 00:56:32.144697   388 net.cpp:396] conv3_2b <- conv3_1b
I0621 00:56:32.144707   388 net.cpp:358] conv3_2b -> conv3_2b
I0621 00:56:32.144718   388 net.cpp:98] Setting up conv3_2b
I0621 00:56:32.146261   388 net.cpp:105] Top shape: 4 256 80 80 (6553600)
I0621 00:56:32.146306   388 net.cpp:438] Sharing parameters 'conv3_2p1' owned by layer 'conv3_2', param index 0
I0621 00:56:32.146616   388 net.cpp:438] Sharing parameters 'conv3_2p2' owned by layer 'conv3_2', param index 1
I0621 00:56:32.146661   388 layer_factory.hpp:78] Creating layer relu3_2b
I0621 00:56:32.146682   388 net.cpp:69] Creating Layer relu3_2b
I0621 00:56:32.146716   388 net.cpp:396] relu3_2b <- conv3_2b
I0621 00:56:32.146739   388 net.cpp:347] relu3_2b -> conv3_2b (in-place)
I0621 00:56:32.146752   388 net.cpp:98] Setting up relu3_2b
I0621 00:56:32.146764   388 net.cpp:105] Top shape: 4 256 80 80 (6553600)
I0621 00:56:32.146772   388 layer_factory.hpp:78] Creating layer conv3_3b
I0621 00:56:32.146787   388 net.cpp:69] Creating Layer conv3_3b
I0621 00:56:32.146795   388 net.cpp:396] conv3_3b <- conv3_2b
I0621 00:56:32.146807   388 net.cpp:358] conv3_3b -> conv3_3b
I0621 00:56:32.146818   388 net.cpp:98] Setting up conv3_3b
I0621 00:56:32.147915   388 net.cpp:105] Top shape: 4 256 80 80 (6553600)
I0621 00:56:32.147936   388 net.cpp:438] Sharing parameters 'conv3_3p1' owned by layer 'conv3_3', param index 0
I0621 00:56:32.147948   388 net.cpp:438] Sharing parameters 'conv3_3p2' owned by layer 'conv3_3', param index 1
I0621 00:56:32.147958   388 layer_factory.hpp:78] Creating layer relu3_3b
I0621 00:56:32.147969   388 net.cpp:69] Creating Layer relu3_3b
I0621 00:56:32.147977   388 net.cpp:396] relu3_3b <- conv3_3b
I0621 00:56:32.147989   388 net.cpp:347] relu3_3b -> conv3_3b (in-place)
I0621 00:56:32.147999   388 net.cpp:98] Setting up relu3_3b
I0621 00:56:32.148007   388 net.cpp:105] Top shape: 4 256 80 80 (6553600)
I0621 00:56:32.148016   388 layer_factory.hpp:78] Creating layer pool3b
I0621 00:56:32.148028   388 net.cpp:69] Creating Layer pool3b
I0621 00:56:32.148036   388 net.cpp:396] pool3b <- conv3_3b
I0621 00:56:32.148047   388 net.cpp:358] pool3b -> pool3b
I0621 00:56:32.148058   388 net.cpp:98] Setting up pool3b
I0621 00:56:32.148068   388 net.cpp:105] Top shape: 4 256 40 40 (1638400)
I0621 00:56:32.148077   388 layer_factory.hpp:78] Creating layer conv4_1b
I0621 00:56:32.148089   388 net.cpp:69] Creating Layer conv4_1b
I0621 00:56:32.148097   388 net.cpp:396] conv4_1b <- pool3b
I0621 00:56:32.148108   388 net.cpp:358] conv4_1b -> conv4_1b
I0621 00:56:32.148119   388 net.cpp:98] Setting up conv4_1b
I0621 00:56:32.151757   388 net.cpp:105] Top shape: 4 512 40 40 (3276800)
I0621 00:56:32.151811   388 net.cpp:438] Sharing parameters 'conv4_1p1' owned by layer 'conv4_1', param index 0
I0621 00:56:32.152036   388 net.cpp:438] Sharing parameters 'conv4_1p2' owned by layer 'conv4_1', param index 1
I0621 00:56:32.152057   388 layer_factory.hpp:78] Creating layer relu4_1b
I0621 00:56:32.152076   388 net.cpp:69] Creating Layer relu4_1b
I0621 00:56:32.152092   388 net.cpp:396] relu4_1b <- conv4_1b
I0621 00:56:32.152110   388 net.cpp:347] relu4_1b -> conv4_1b (in-place)
I0621 00:56:32.152139   388 net.cpp:98] Setting up relu4_1b
I0621 00:56:32.152163   388 net.cpp:105] Top shape: 4 512 40 40 (3276800)
I0621 00:56:32.152179   388 layer_factory.hpp:78] Creating layer conv4_2b
I0621 00:56:32.152199   388 net.cpp:69] Creating Layer conv4_2b
I0621 00:56:32.152216   388 net.cpp:396] conv4_2b <- conv4_1b
I0621 00:56:32.152247   388 net.cpp:358] conv4_2b -> conv4_2b
I0621 00:56:32.152276   388 net.cpp:98] Setting up conv4_2b
I0621 00:56:32.158769   388 net.cpp:105] Top shape: 4 512 40 40 (3276800)
I0621 00:56:32.158815   388 net.cpp:438] Sharing parameters 'conv4_2p1' owned by layer 'conv4_2', param index 0
I0621 00:56:32.159049   388 net.cpp:438] Sharing parameters 'conv4_2p2' owned by layer 'conv4_2', param index 1
I0621 00:56:32.159076   388 layer_factory.hpp:78] Creating layer relu4_2b
I0621 00:56:32.159091   388 net.cpp:69] Creating Layer relu4_2b
I0621 00:56:32.159103   388 net.cpp:396] relu4_2b <- conv4_2b
I0621 00:56:32.159114   388 net.cpp:347] relu4_2b -> conv4_2b (in-place)
I0621 00:56:32.159127   388 net.cpp:98] Setting up relu4_2b
I0621 00:56:32.159137   388 net.cpp:105] Top shape: 4 512 40 40 (3276800)
I0621 00:56:32.159147   388 layer_factory.hpp:78] Creating layer conv4_3b
I0621 00:56:32.159159   388 net.cpp:69] Creating Layer conv4_3b
I0621 00:56:32.159193   388 net.cpp:396] conv4_3b <- conv4_2b
I0621 00:56:32.159205   388 net.cpp:358] conv4_3b -> conv4_3b
I0621 00:56:32.159217   388 net.cpp:98] Setting up conv4_3b
I0621 00:56:32.166420   388 net.cpp:105] Top shape: 4 512 40 40 (3276800)
I0621 00:56:32.166476   388 net.cpp:438] Sharing parameters 'conv4_3p1' owned by layer 'conv4_3', param index 0
I0621 00:56:32.166488   388 net.cpp:438] Sharing parameters 'conv4_3p2' owned by layer 'conv4_3', param index 1
I0621 00:56:32.166499   388 layer_factory.hpp:78] Creating layer relu4_3b
I0621 00:56:32.166514   388 net.cpp:69] Creating Layer relu4_3b
I0621 00:56:32.166524   388 net.cpp:396] relu4_3b <- conv4_3b
I0621 00:56:32.166537   388 net.cpp:347] relu4_3b -> conv4_3b (in-place)
I0621 00:56:32.166548   388 net.cpp:98] Setting up relu4_3b
I0621 00:56:32.166558   388 net.cpp:105] Top shape: 4 512 40 40 (3276800)
I0621 00:56:32.166568   388 layer_factory.hpp:78] Creating layer pool4b
I0621 00:56:32.166577   388 net.cpp:69] Creating Layer pool4b
I0621 00:56:32.166586   388 net.cpp:396] pool4b <- conv4_3b
I0621 00:56:32.166597   388 net.cpp:358] pool4b -> pool4b
I0621 00:56:32.166648   388 net.cpp:98] Setting up pool4b
I0621 00:56:32.166661   388 net.cpp:105] Top shape: 4 512 20 20 (819200)
I0621 00:56:32.166671   388 layer_factory.hpp:78] Creating layer conv5_1b
I0621 00:56:32.166683   388 net.cpp:69] Creating Layer conv5_1b
I0621 00:56:32.166692   388 net.cpp:396] conv5_1b <- pool4b
I0621 00:56:32.166704   388 net.cpp:358] conv5_1b -> conv5_1b
I0621 00:56:32.166717   388 net.cpp:98] Setting up conv5_1b
I0621 00:56:32.168567   388 net.cpp:105] Top shape: 4 512 20 20 (819200)
I0621 00:56:32.168587   388 net.cpp:438] Sharing parameters 'conv5_1p1' owned by layer 'conv5_1', param index 0
I0621 00:56:32.168597   388 net.cpp:438] Sharing parameters 'conv5_1p2' owned by layer 'conv5_1', param index 1
I0621 00:56:32.168606   388 layer_factory.hpp:78] Creating layer relu5_1b
I0621 00:56:32.168618   388 net.cpp:69] Creating Layer relu5_1b
I0621 00:56:32.168632   388 net.cpp:396] relu5_1b <- conv5_1b
I0621 00:56:32.168642   388 net.cpp:347] relu5_1b -> conv5_1b (in-place)
I0621 00:56:32.168653   388 net.cpp:98] Setting up relu5_1b
I0621 00:56:32.168661   388 net.cpp:105] Top shape: 4 512 20 20 (819200)
I0621 00:56:32.168669   388 layer_factory.hpp:78] Creating layer conv5_2b
I0621 00:56:32.168680   388 net.cpp:69] Creating Layer conv5_2b
I0621 00:56:32.168689   388 net.cpp:396] conv5_2b <- conv5_1b
I0621 00:56:32.168699   388 net.cpp:358] conv5_2b -> conv5_2b
I0621 00:56:32.168709   388 net.cpp:98] Setting up conv5_2b
I0621 00:56:32.172184   388 net.cpp:105] Top shape: 4 512 20 20 (819200)
I0621 00:56:32.172235   388 net.cpp:438] Sharing parameters 'conv5_2p1' owned by layer 'conv5_2', param index 0
I0621 00:56:32.172246   388 net.cpp:438] Sharing parameters 'conv5_2p2' owned by layer 'conv5_2', param index 1
I0621 00:56:32.172256   388 layer_factory.hpp:78] Creating layer relu5_2b
I0621 00:56:32.172271   388 net.cpp:69] Creating Layer relu5_2b
I0621 00:56:32.173668   388 net.cpp:396] relu5_2b <- conv5_2b
I0621 00:56:32.173743   388 net.cpp:347] relu5_2b -> conv5_2b (in-place)
I0621 00:56:32.173765   388 net.cpp:98] Setting up relu5_2b
I0621 00:56:32.173774   388 net.cpp:105] Top shape: 4 512 20 20 (819200)
I0621 00:56:32.173784   388 layer_factory.hpp:78] Creating layer conv5_3b
I0621 00:56:32.173799   388 net.cpp:69] Creating Layer conv5_3b
I0621 00:56:32.173809   388 net.cpp:396] conv5_3b <- conv5_2b
I0621 00:56:32.173821   388 net.cpp:358] conv5_3b -> conv5_3b
I0621 00:56:32.173837   388 net.cpp:98] Setting up conv5_3b
I0621 00:56:32.176364   388 net.cpp:105] Top shape: 4 512 20 20 (819200)
I0621 00:56:32.176406   388 net.cpp:438] Sharing parameters 'conv5_3p1' owned by layer 'conv5_3', param index 0
I0621 00:56:32.176419   388 net.cpp:438] Sharing parameters 'conv5_3p2' owned by layer 'conv5_3', param index 1
I0621 00:56:32.176429   388 layer_factory.hpp:78] Creating layer relu5_3b
I0621 00:56:32.176442   388 net.cpp:69] Creating Layer relu5_3b
I0621 00:56:32.176481   388 net.cpp:396] relu5_3b <- conv5_3b
I0621 00:56:32.176492   388 net.cpp:347] relu5_3b -> conv5_3b (in-place)
I0621 00:56:32.176506   388 net.cpp:98] Setting up relu5_3b
I0621 00:56:32.176513   388 net.cpp:105] Top shape: 4 512 20 20 (819200)
I0621 00:56:32.176522   388 layer_factory.hpp:78] Creating layer pool5b
I0621 00:56:32.176532   388 net.cpp:69] Creating Layer pool5b
I0621 00:56:32.176540   388 net.cpp:396] pool5b <- conv5_3b
I0621 00:56:32.176551   388 net.cpp:358] pool5b -> pool5b
I0621 00:56:32.176563   388 net.cpp:98] Setting up pool5b
I0621 00:56:32.176574   388 net.cpp:105] Top shape: 4 512 10 10 (204800)
I0621 00:56:32.176584   388 layer_factory.hpp:78] Creating layer fc6
I0621 00:56:32.176606   388 net.cpp:69] Creating Layer fc6
I0621 00:56:32.176616   388 net.cpp:396] fc6 <- pool5_pool5_0_split_0
I0621 00:56:32.176627   388 net.cpp:358] fc6 -> fc6
I0621 00:56:32.176638   388 net.cpp:98] Setting up fc6
I0621 00:56:32.384042   388 net.cpp:105] Top shape: 4 4096 4 4 (262144)
I0621 00:56:32.384102   388 layer_factory.hpp:78] Creating layer relu6
I0621 00:56:32.384119   388 net.cpp:69] Creating Layer relu6
I0621 00:56:32.384130   388 net.cpp:396] relu6 <- fc6
I0621 00:56:32.384143   388 net.cpp:347] relu6 -> fc6 (in-place)
I0621 00:56:32.384158   388 net.cpp:358] relu6 -> relu6-mask
I0621 00:56:32.384171   388 net.cpp:98] Setting up relu6
I0621 00:56:32.384181   388 net.cpp:105] Top shape: 4 4096 4 4 (262144)
I0621 00:56:32.384189   388 net.cpp:105] Top shape: 4 4096 4 4 (262144)
I0621 00:56:32.384198   388 layer_factory.hpp:78] Creating layer fc7
I0621 00:56:32.384210   388 net.cpp:69] Creating Layer fc7
I0621 00:56:32.384218   388 net.cpp:396] fc7 <- fc6
I0621 00:56:32.384229   388 net.cpp:358] fc7 -> fc7
I0621 00:56:32.384240   388 net.cpp:98] Setting up fc7
I0621 00:56:32.423748   388 net.cpp:105] Top shape: 4 4096 4 4 (262144)
I0621 00:56:32.423842   388 layer_factory.hpp:78] Creating layer relu7
I0621 00:56:32.423872   388 net.cpp:69] Creating Layer relu7
I0621 00:56:32.423893   388 net.cpp:396] relu7 <- fc7
I0621 00:56:32.423914   388 net.cpp:347] relu7 -> fc7 (in-place)
I0621 00:56:32.423940   388 net.cpp:358] relu7 -> relu7-mask
I0621 00:56:32.423964   388 net.cpp:98] Setting up relu7
I0621 00:56:32.423995   388 net.cpp:105] Top shape: 4 4096 4 4 (262144)
I0621 00:56:32.424017   388 net.cpp:105] Top shape: 4 4096 4 4 (262144)
I0621 00:56:32.424028   388 layer_factory.hpp:78] Creating layer cls-score-voc
I0621 00:56:32.424048   388 net.cpp:69] Creating Layer cls-score-voc
I0621 00:56:32.424062   388 net.cpp:396] cls-score-voc <- fc7
I0621 00:56:32.424105   388 net.cpp:358] cls-score-voc -> cls-score
I0621 00:56:32.424162   388 net.cpp:98] Setting up cls-score-voc
I0621 00:56:32.430415   388 net.cpp:105] Top shape: 4 20 4 4 (1280)
I0621 00:56:32.430457   388 layer_factory.hpp:78] Creating layer avg-pool
I0621 00:56:32.430483   388 net.cpp:69] Creating Layer avg-pool
I0621 00:56:32.430502   388 net.cpp:396] avg-pool <- cls-score
I0621 00:56:32.430524   388 net.cpp:358] avg-pool -> cls-score-pooled
I0621 00:56:32.430554   388 net.cpp:358] avg-pool -> score-pool-mask
I0621 00:56:32.430579   388 net.cpp:98] Setting up avg-pool
I0621 00:56:32.430600   388 net.cpp:105] Top shape: 4 20 1 1 (80)
I0621 00:56:32.430618   388 net.cpp:105] Top shape: 4 20 1 1 (80)
I0621 00:56:32.430634   388 layer_factory.hpp:78] Creating layer cls-score-sigmoid
I0621 00:56:32.430654   388 net.cpp:69] Creating Layer cls-score-sigmoid
I0621 00:56:32.430670   388 net.cpp:396] cls-score-sigmoid <- cls-score-pooled
I0621 00:56:32.430703   388 net.cpp:358] cls-score-sigmoid -> cls-score-sigmoid
I0621 00:56:32.430738   388 net.cpp:98] Setting up cls-score-sigmoid
I0621 00:56:32.430752   388 net.cpp:105] Top shape: 4 20 1 1 (80)
I0621 00:56:32.430763   388 layer_factory.hpp:78] Creating layer cls-score-mask
I0621 00:56:32.430780   388 net.cpp:69] Creating Layer cls-score-mask
I0621 00:56:32.430793   388 net.cpp:396] cls-score-mask <- cls-score-sigmoid
I0621 00:56:32.430804   388 net.cpp:396] cls-score-mask <- cls-label
I0621 00:56:32.430861   388 net.cpp:358] cls-score-mask -> cls-score-masked
I0621 00:56:32.430886   388 net.cpp:98] Setting up cls-score-mask
I0621 00:56:32.430899   388 net.cpp:105] Top shape: 4 20 1 1 (80)
I0621 00:56:32.430909   388 layer_factory.hpp:78] Creating layer avg-unpool
I0621 00:56:32.430924   388 net.cpp:69] Creating Layer avg-unpool
I0621 00:56:32.430934   388 net.cpp:396] avg-unpool <- cls-score-masked
I0621 00:56:32.430946   388 net.cpp:396] avg-unpool <- score-pool-mask
I0621 00:56:32.430958   388 net.cpp:358] avg-unpool -> cls-score-unpooled
I0621 00:56:32.430971   388 net.cpp:98] Setting up avg-unpool
I0621 00:56:32.430982   388 net.cpp:105] Top shape: 4 20 4 4 (1280)
I0621 00:56:32.430992   388 layer_factory.hpp:78] Creating layer cls-score-voc-bp
I0621 00:56:32.431007   388 net.cpp:69] Creating Layer cls-score-voc-bp
I0621 00:56:32.431017   388 net.cpp:396] cls-score-voc-bp <- cls-score-unpooled
I0621 00:56:32.431031   388 net.cpp:358] cls-score-voc-bp -> fc7-bp
I0621 00:56:32.431044   388 net.cpp:98] Setting up cls-score-voc-bp
I0621 00:56:32.437077   388 net.cpp:105] Top shape: 4 4096 4 4 (262144)
I0621 00:56:32.437114   388 layer_factory.hpp:78] Creating layer relu7-mask
I0621 00:56:32.437135   388 net.cpp:69] Creating Layer relu7-mask
I0621 00:56:32.437153   388 net.cpp:396] relu7-mask <- fc7-bp
I0621 00:56:32.437172   388 net.cpp:396] relu7-mask <- relu7-mask
I0621 00:56:32.437191   388 net.cpp:347] relu7-mask -> fc7-bp (in-place)
I0621 00:56:32.437213   388 net.cpp:98] Setting up relu7-mask
I0621 00:56:32.437230   388 net.cpp:105] Top shape: 4 4096 4 4 (262144)
I0621 00:56:32.437247   388 layer_factory.hpp:78] Creating layer fc7-bp
I0621 00:56:32.437280   388 net.cpp:69] Creating Layer fc7-bp
I0621 00:56:32.437301   388 net.cpp:396] fc7-bp <- fc7-bp
I0621 00:56:32.437321   388 net.cpp:358] fc7-bp -> fc6-bp
I0621 00:56:32.437343   388 net.cpp:98] Setting up fc7-bp
I0621 00:56:32.485285   388 net.cpp:105] Top shape: 4 4096 4 4 (262144)
I0621 00:56:32.485463   388 layer_factory.hpp:78] Creating layer relu6-mask
I0621 00:56:32.485503   388 net.cpp:69] Creating Layer relu6-mask
I0621 00:56:32.485625   388 net.cpp:396] relu6-mask <- fc6-bp
I0621 00:56:32.485709   388 net.cpp:396] relu6-mask <- relu6-mask
I0621 00:56:32.485739   388 net.cpp:347] relu6-mask -> fc6-bp (in-place)
I0621 00:56:32.485766   388 net.cpp:98] Setting up relu6-mask
I0621 00:56:32.485782   388 net.cpp:105] Top shape: 4 4096 4 4 (262144)
I0621 00:56:32.485795   388 layer_factory.hpp:78] Creating layer fc6-bp
I0621 00:56:32.485822   388 net.cpp:69] Creating Layer fc6-bp
I0621 00:56:32.485836   388 net.cpp:396] fc6-bp <- fc6-bp
I0621 00:56:32.485890   388 net.cpp:358] fc6-bp -> pool5-bp
I0621 00:56:32.485927   388 net.cpp:98] Setting up fc6-bp
I0621 00:56:32.784234   388 net.cpp:105] Top shape: 4 512 10 10 (204800)
I0621 00:56:32.784310   388 layer_factory.hpp:78] Creating layer pool5-bn
I0621 00:56:32.784354   388 net.cpp:69] Creating Layer pool5-bn
I0621 00:56:32.784375   388 net.cpp:396] pool5-bn <- pool5_pool5_0_split_1
I0621 00:56:32.784392   388 net.cpp:358] pool5-bn -> pool5-bn
I0621 00:56:32.784415   388 net.cpp:98] Setting up pool5-bn
I0621 00:56:32.784454   388 net.cpp:105] Top shape: 4 512 10 10 (204800)
I0621 00:56:32.784813   388 layer_factory.hpp:78] Creating layer pool5b-bn
I0621 00:56:32.784831   388 net.cpp:69] Creating Layer pool5b-bn
I0621 00:56:32.784840   388 net.cpp:396] pool5b-bn <- pool5b
I0621 00:56:32.784855   388 net.cpp:358] pool5b-bn -> pool5b-bn
I0621 00:56:32.784868   388 net.cpp:98] Setting up pool5b-bn
I0621 00:56:32.784900   388 net.cpp:105] Top shape: 4 512 10 10 (204800)
I0621 00:56:32.784912   388 layer_factory.hpp:78] Creating layer pool5-bp-bn
I0621 00:56:32.784924   388 net.cpp:69] Creating Layer pool5-bp-bn
I0621 00:56:32.784932   388 net.cpp:396] pool5-bp-bn <- pool5-bp
I0621 00:56:32.784943   388 net.cpp:358] pool5-bp-bn -> pool5-bp-bn
I0621 00:56:32.784955   388 net.cpp:98] Setting up pool5-bp-bn
I0621 00:56:32.784970   388 net.cpp:105] Top shape: 4 512 10 10 (204800)
I0621 00:56:32.784981   388 layer_factory.hpp:78] Creating layer pool5-concat
I0621 00:56:32.785038   388 net.cpp:69] Creating Layer pool5-concat
I0621 00:56:32.785055   388 net.cpp:396] pool5-concat <- pool5-bn
I0621 00:56:32.785068   388 net.cpp:396] pool5-concat <- pool5b-bn
I0621 00:56:32.785078   388 net.cpp:396] pool5-concat <- pool5-bp-bn
I0621 00:56:32.785099   388 net.cpp:358] pool5-concat -> pool5-concat
I0621 00:56:32.785111   388 net.cpp:98] Setting up pool5-concat
I0621 00:56:32.785121   388 net.cpp:105] Top shape: 4 1536 10 10 (614400)
I0621 00:56:32.785130   388 layer_factory.hpp:78] Creating layer fc6-seg
I0621 00:56:32.785152   388 net.cpp:69] Creating Layer fc6-seg
I0621 00:56:32.785162   388 net.cpp:396] fc6-seg <- pool5-concat
I0621 00:56:32.785173   388 net.cpp:358] fc6-seg -> fc6-seg
I0621 00:56:32.785342   388 net.cpp:98] Setting up fc6-seg
I0621 00:56:38.705054   388 net.cpp:105] Top shape: 4 2048 4 4 (131072)
I0621 00:56:38.705132   388 layer_factory.hpp:78] Creating layer bnfc6-seg
I0621 00:56:38.705155   388 net.cpp:69] Creating Layer bnfc6-seg
I0621 00:56:38.705175   388 net.cpp:396] bnfc6-seg <- fc6-seg
I0621 00:56:38.705188   388 net.cpp:347] bnfc6-seg -> fc6-seg (in-place)
I0621 00:56:38.705200   388 net.cpp:98] Setting up bnfc6-seg
I0621 00:56:38.705220   388 net.cpp:105] Top shape: 4 2048 4 4 (131072)
I0621 00:56:38.705229   388 layer_factory.hpp:78] Creating layer relu6-seg
I0621 00:56:38.705240   388 net.cpp:69] Creating Layer relu6-seg
I0621 00:56:38.705246   388 net.cpp:396] relu6-seg <- fc6-seg
I0621 00:56:38.705255   388 net.cpp:347] relu6-seg -> fc6-seg (in-place)
I0621 00:56:38.705261   388 net.cpp:98] Setting up relu6-seg
I0621 00:56:38.705268   388 net.cpp:105] Top shape: 4 2048 4 4 (131072)
I0621 00:56:38.705274   388 layer_factory.hpp:78] Creating layer fc7-seg
I0621 00:56:38.705286   388 net.cpp:69] Creating Layer fc7-seg
I0621 00:56:38.705292   388 net.cpp:396] fc7-seg <- fc6-seg
I0621 00:56:38.705307   388 net.cpp:358] fc7-seg -> fc7-seg
I0621 00:56:38.705317   388 net.cpp:98] Setting up fc7-seg
I0621 00:56:38.911926   388 net.cpp:105] Top shape: 4 2048 4 4 (131072)
I0621 00:56:38.912036   388 layer_factory.hpp:78] Creating layer bnfc7-seg
I0621 00:56:38.912086   388 net.cpp:69] Creating Layer bnfc7-seg
I0621 00:56:38.912163   388 net.cpp:396] bnfc7-seg <- fc7-seg
I0621 00:56:38.912194   388 net.cpp:347] bnfc7-seg -> fc7-seg (in-place)
I0621 00:56:38.912220   388 net.cpp:98] Setting up bnfc7-seg
I0621 00:56:38.912252   388 net.cpp:105] Top shape: 4 2048 4 4 (131072)
I0621 00:56:38.912268   388 layer_factory.hpp:78] Creating layer relu7-seg
I0621 00:56:38.912286   388 net.cpp:69] Creating Layer relu7-seg
I0621 00:56:38.912294   388 net.cpp:396] relu7-seg <- fc7-seg
I0621 00:56:38.912307   388 net.cpp:347] relu7-seg -> fc7-seg (in-place)
I0621 00:56:38.912322   388 net.cpp:98] Setting up relu7-seg
I0621 00:56:38.912331   388 net.cpp:105] Top shape: 4 2048 4 4 (131072)
I0621 00:56:38.912340   388 layer_factory.hpp:78] Creating layer fc6-deconv
I0621 00:56:38.912354   388 net.cpp:69] Creating Layer fc6-deconv
I0621 00:56:38.912364   388 net.cpp:396] fc6-deconv <- fc7-seg
I0621 00:56:38.912391   388 net.cpp:358] fc6-deconv -> fc6-deconv
I0621 00:56:38.912417   388 net.cpp:98] Setting up fc6-deconv
I0621 00:56:40.588368   388 net.cpp:105] Top shape: 4 512 10 10 (204800)
I0621 00:56:40.588424   388 layer_factory.hpp:78] Creating layer fc6-deconv-bn
I0621 00:56:40.588443   388 net.cpp:69] Creating Layer fc6-deconv-bn
I0621 00:56:40.588461   388 net.cpp:396] fc6-deconv-bn <- fc6-deconv
I0621 00:56:40.588474   388 net.cpp:347] fc6-deconv-bn -> fc6-deconv (in-place)
I0621 00:56:40.588485   388 net.cpp:98] Setting up fc6-deconv-bn
I0621 00:56:40.588500   388 net.cpp:105] Top shape: 4 512 10 10 (204800)
I0621 00:56:40.588507   388 layer_factory.hpp:78] Creating layer fc6-deconv-relu
I0621 00:56:40.588518   388 net.cpp:69] Creating Layer fc6-deconv-relu
I0621 00:56:40.588526   388 net.cpp:396] fc6-deconv-relu <- fc6-deconv
I0621 00:56:40.588532   388 net.cpp:347] fc6-deconv-relu -> fc6-deconv (in-place)
I0621 00:56:40.588579   388 net.cpp:98] Setting up fc6-deconv-relu
I0621 00:56:40.588587   388 net.cpp:105] Top shape: 4 512 10 10 (204800)
I0621 00:56:40.588594   388 layer_factory.hpp:78] Creating layer unpool5
I0621 00:56:40.588604   388 net.cpp:69] Creating Layer unpool5
I0621 00:56:40.588610   388 net.cpp:396] unpool5 <- fc6-deconv
I0621 00:56:40.588629   388 net.cpp:396] unpool5 <- pool5_mask
I0621 00:56:40.588645   388 net.cpp:358] unpool5 -> unpool5
I0621 00:56:40.588655   388 net.cpp:98] Setting up unpool5
I0621 00:56:40.588663   388 net.cpp:105] Top shape: 4 512 20 20 (819200)
I0621 00:56:40.588670   388 layer_factory.hpp:78] Creating layer deconv5_1
I0621 00:56:40.588680   388 net.cpp:69] Creating Layer deconv5_1
I0621 00:56:40.588685   388 net.cpp:396] deconv5_1 <- unpool5
I0621 00:56:40.588699   388 net.cpp:358] deconv5_1 -> deconv5_1
I0621 00:56:40.588709   388 net.cpp:98] Setting up deconv5_1
I0621 00:56:40.660301   388 net.cpp:105] Top shape: 4 512 20 20 (819200)
I0621 00:56:40.660348   388 layer_factory.hpp:78] Creating layer debn5_1
I0621 00:56:40.660367   388 net.cpp:69] Creating Layer debn5_1
I0621 00:56:40.660389   388 net.cpp:396] debn5_1 <- deconv5_1
I0621 00:56:40.660401   388 net.cpp:347] debn5_1 -> deconv5_1 (in-place)
I0621 00:56:40.660413   388 net.cpp:98] Setting up debn5_1
I0621 00:56:40.660431   388 net.cpp:105] Top shape: 4 512 20 20 (819200)
I0621 00:56:40.660444   388 layer_factory.hpp:78] Creating layer derelu5_1
I0621 00:56:40.660454   388 net.cpp:69] Creating Layer derelu5_1
I0621 00:56:40.660461   388 net.cpp:396] derelu5_1 <- deconv5_1
I0621 00:56:40.660470   388 net.cpp:347] derelu5_1 -> deconv5_1 (in-place)
I0621 00:56:40.660478   388 net.cpp:98] Setting up derelu5_1
I0621 00:56:40.660485   388 net.cpp:105] Top shape: 4 512 20 20 (819200)
I0621 00:56:40.660495   388 layer_factory.hpp:78] Creating layer deconv5_2
I0621 00:56:40.660506   388 net.cpp:69] Creating Layer deconv5_2
I0621 00:56:40.660526   388 net.cpp:396] deconv5_2 <- deconv5_1
I0621 00:56:40.660534   388 net.cpp:358] deconv5_2 -> deconv5_2
I0621 00:56:40.660545   388 net.cpp:98] Setting up deconv5_2
I0621 00:56:40.732003   388 net.cpp:105] Top shape: 4 512 20 20 (819200)
I0621 00:56:40.732039   388 layer_factory.hpp:78] Creating layer debn5_2
I0621 00:56:40.732053   388 net.cpp:69] Creating Layer debn5_2
I0621 00:56:40.732062   388 net.cpp:396] debn5_2 <- deconv5_2
I0621 00:56:40.732074   388 net.cpp:347] debn5_2 -> deconv5_2 (in-place)
I0621 00:56:40.732084   388 net.cpp:98] Setting up debn5_2
I0621 00:56:40.732102   388 net.cpp:105] Top shape: 4 512 20 20 (819200)
I0621 00:56:40.732111   388 layer_factory.hpp:78] Creating layer derelu5_2
I0621 00:56:40.732121   388 net.cpp:69] Creating Layer derelu5_2
I0621 00:56:40.732128   388 net.cpp:396] derelu5_2 <- deconv5_2
I0621 00:56:40.732138   388 net.cpp:347] derelu5_2 -> deconv5_2 (in-place)
I0621 00:56:40.732147   388 net.cpp:98] Setting up derelu5_2
I0621 00:56:40.732154   388 net.cpp:105] Top shape: 4 512 20 20 (819200)
I0621 00:56:40.732162   388 layer_factory.hpp:78] Creating layer deconv5_3
I0621 00:56:40.732172   388 net.cpp:69] Creating Layer deconv5_3
I0621 00:56:40.732179   388 net.cpp:396] deconv5_3 <- deconv5_2
I0621 00:56:40.732187   388 net.cpp:358] deconv5_3 -> deconv5_3
I0621 00:56:40.732197   388 net.cpp:98] Setting up deconv5_3
I0621 00:56:40.803474   388 net.cpp:105] Top shape: 4 512 20 20 (819200)
I0621 00:56:40.803510   388 layer_factory.hpp:78] Creating layer debn5_3
I0621 00:56:40.803525   388 net.cpp:69] Creating Layer debn5_3
I0621 00:56:40.803534   388 net.cpp:396] debn5_3 <- deconv5_3
I0621 00:56:40.803545   388 net.cpp:347] debn5_3 -> deconv5_3 (in-place)
I0621 00:56:40.803555   388 net.cpp:98] Setting up debn5_3
I0621 00:56:40.803571   388 net.cpp:105] Top shape: 4 512 20 20 (819200)
I0621 00:56:40.803580   388 layer_factory.hpp:78] Creating layer derelu5_3
I0621 00:56:40.803587   388 net.cpp:69] Creating Layer derelu5_3
I0621 00:56:40.803593   388 net.cpp:396] derelu5_3 <- deconv5_3
I0621 00:56:40.803602   388 net.cpp:347] derelu5_3 -> deconv5_3 (in-place)
I0621 00:56:40.803633   388 net.cpp:98] Setting up derelu5_3
I0621 00:56:40.803642   388 net.cpp:105] Top shape: 4 512 20 20 (819200)
I0621 00:56:40.803647   388 layer_factory.hpp:78] Creating layer unpool4
I0621 00:56:40.803656   388 net.cpp:69] Creating Layer unpool4
I0621 00:56:40.803663   388 net.cpp:396] unpool4 <- deconv5_3
I0621 00:56:40.803680   388 net.cpp:396] unpool4 <- pool4_mask
I0621 00:56:40.803715   388 net.cpp:358] unpool4 -> unpool4
I0621 00:56:40.803726   388 net.cpp:98] Setting up unpool4
I0621 00:56:40.803733   388 net.cpp:105] Top shape: 4 512 40 40 (3276800)
I0621 00:56:40.803740   388 layer_factory.hpp:78] Creating layer deconv4_1
I0621 00:56:40.803751   388 net.cpp:69] Creating Layer deconv4_1
I0621 00:56:40.803757   388 net.cpp:396] deconv4_1 <- unpool4
I0621 00:56:40.803766   388 net.cpp:358] deconv4_1 -> deconv4_1
I0621 00:56:40.803773   388 net.cpp:98] Setting up deconv4_1
I0621 00:56:40.872397   388 net.cpp:105] Top shape: 4 512 40 40 (3276800)
I0621 00:56:40.872428   388 layer_factory.hpp:78] Creating layer debn4_1
I0621 00:56:40.872453   388 net.cpp:69] Creating Layer debn4_1
I0621 00:56:40.872463   388 net.cpp:396] debn4_1 <- deconv4_1
I0621 00:56:40.872473   388 net.cpp:347] debn4_1 -> deconv4_1 (in-place)
I0621 00:56:40.872483   388 net.cpp:98] Setting up debn4_1
I0621 00:56:40.872505   388 net.cpp:105] Top shape: 4 512 40 40 (3276800)
I0621 00:56:40.872514   388 layer_factory.hpp:78] Creating layer derelu4_1
I0621 00:56:40.872522   388 net.cpp:69] Creating Layer derelu4_1
I0621 00:56:40.872529   388 net.cpp:396] derelu4_1 <- deconv4_1
I0621 00:56:40.872539   388 net.cpp:347] derelu4_1 -> deconv4_1 (in-place)
I0621 00:56:40.872546   388 net.cpp:98] Setting up derelu4_1
I0621 00:56:40.872553   388 net.cpp:105] Top shape: 4 512 40 40 (3276800)
I0621 00:56:40.872560   388 layer_factory.hpp:78] Creating layer deconv4_2
I0621 00:56:40.872570   388 net.cpp:69] Creating Layer deconv4_2
I0621 00:56:40.872576   388 net.cpp:396] deconv4_2 <- deconv4_1
I0621 00:56:40.872586   388 net.cpp:358] deconv4_2 -> deconv4_2
I0621 00:56:40.872594   388 net.cpp:98] Setting up deconv4_2
I0621 00:56:40.941112   388 net.cpp:105] Top shape: 4 512 40 40 (3276800)
I0621 00:56:40.941138   388 layer_factory.hpp:78] Creating layer debn4_2
I0621 00:56:40.941149   388 net.cpp:69] Creating Layer debn4_2
I0621 00:56:40.941157   388 net.cpp:396] debn4_2 <- deconv4_2
I0621 00:56:40.941166   388 net.cpp:347] debn4_2 -> deconv4_2 (in-place)
I0621 00:56:40.941176   388 net.cpp:98] Setting up debn4_2
I0621 00:56:40.941200   388 net.cpp:105] Top shape: 4 512 40 40 (3276800)
I0621 00:56:40.941210   388 layer_factory.hpp:78] Creating layer derelu4_2
I0621 00:56:40.941218   388 net.cpp:69] Creating Layer derelu4_2
I0621 00:56:40.941226   388 net.cpp:396] derelu4_2 <- deconv4_2
I0621 00:56:40.941233   388 net.cpp:347] derelu4_2 -> deconv4_2 (in-place)
I0621 00:56:40.941241   388 net.cpp:98] Setting up derelu4_2
I0621 00:56:40.941249   388 net.cpp:105] Top shape: 4 512 40 40 (3276800)
I0621 00:56:40.941257   388 layer_factory.hpp:78] Creating layer deconv4_3
I0621 00:56:40.941268   388 net.cpp:69] Creating Layer deconv4_3
I0621 00:56:40.941274   388 net.cpp:396] deconv4_3 <- deconv4_2
I0621 00:56:40.941284   388 net.cpp:358] deconv4_3 -> deconv4_3
I0621 00:56:40.941294   388 net.cpp:98] Setting up deconv4_3
I0621 00:56:40.975478   388 net.cpp:105] Top shape: 4 256 40 40 (1638400)
I0621 00:56:40.975495   388 layer_factory.hpp:78] Creating layer debn4_3
I0621 00:56:40.975504   388 net.cpp:69] Creating Layer debn4_3
I0621 00:56:40.975512   388 net.cpp:396] debn4_3 <- deconv4_3
I0621 00:56:40.975518   388 net.cpp:347] debn4_3 -> deconv4_3 (in-place)
I0621 00:56:40.975527   388 net.cpp:98] Setting up debn4_3
I0621 00:56:40.975543   388 net.cpp:105] Top shape: 4 256 40 40 (1638400)
I0621 00:56:40.975550   388 layer_factory.hpp:78] Creating layer derelu4_3
I0621 00:56:40.975558   388 net.cpp:69] Creating Layer derelu4_3
I0621 00:56:40.975564   388 net.cpp:396] derelu4_3 <- deconv4_3
I0621 00:56:40.975571   388 net.cpp:347] derelu4_3 -> deconv4_3 (in-place)
I0621 00:56:40.975599   388 net.cpp:98] Setting up derelu4_3
I0621 00:56:40.975605   388 net.cpp:105] Top shape: 4 256 40 40 (1638400)
I0621 00:56:40.975611   388 layer_factory.hpp:78] Creating layer unpool3
I0621 00:56:40.975621   388 net.cpp:69] Creating Layer unpool3
I0621 00:56:40.975628   388 net.cpp:396] unpool3 <- deconv4_3
I0621 00:56:40.975637   388 net.cpp:396] unpool3 <- pool3_mask
I0621 00:56:40.975646   388 net.cpp:358] unpool3 -> unpool3
I0621 00:56:40.975663   388 net.cpp:98] Setting up unpool3
I0621 00:56:40.975672   388 net.cpp:105] Top shape: 4 256 80 80 (6553600)
I0621 00:56:40.975677   388 layer_factory.hpp:78] Creating layer deconv3_1
I0621 00:56:40.975687   388 net.cpp:69] Creating Layer deconv3_1
I0621 00:56:40.975693   388 net.cpp:396] deconv3_1 <- unpool3
I0621 00:56:40.975700   388 net.cpp:358] deconv3_1 -> deconv3_1
I0621 00:56:40.975708   388 net.cpp:98] Setting up deconv3_1
I0621 00:56:40.993155   388 net.cpp:105] Top shape: 4 256 80 80 (6553600)
I0621 00:56:40.993172   388 layer_factory.hpp:78] Creating layer debn3_1
I0621 00:56:40.993181   388 net.cpp:69] Creating Layer debn3_1
I0621 00:56:40.993188   388 net.cpp:396] debn3_1 <- deconv3_1
I0621 00:56:40.993197   388 net.cpp:347] debn3_1 -> deconv3_1 (in-place)
I0621 00:56:40.993206   388 net.cpp:98] Setting up debn3_1
I0621 00:56:40.993238   388 net.cpp:105] Top shape: 4 256 80 80 (6553600)
I0621 00:56:40.993248   388 layer_factory.hpp:78] Creating layer derelu3_1
I0621 00:56:40.993255   388 net.cpp:69] Creating Layer derelu3_1
I0621 00:56:40.993262   388 net.cpp:396] derelu3_1 <- deconv3_1
I0621 00:56:40.993268   388 net.cpp:347] derelu3_1 -> deconv3_1 (in-place)
I0621 00:56:40.993275   388 net.cpp:98] Setting up derelu3_1
I0621 00:56:40.993281   388 net.cpp:105] Top shape: 4 256 80 80 (6553600)
I0621 00:56:40.993288   388 layer_factory.hpp:78] Creating layer deconv3_2
I0621 00:56:40.993296   388 net.cpp:69] Creating Layer deconv3_2
I0621 00:56:40.993302   388 net.cpp:396] deconv3_2 <- deconv3_1
I0621 00:56:40.993310   388 net.cpp:358] deconv3_2 -> deconv3_2
I0621 00:56:40.993319   388 net.cpp:98] Setting up deconv3_2
I0621 00:56:41.010701   388 net.cpp:105] Top shape: 4 256 80 80 (6553600)
I0621 00:56:41.010717   388 layer_factory.hpp:78] Creating layer debn3_2
I0621 00:56:41.010728   388 net.cpp:69] Creating Layer debn3_2
I0621 00:56:41.010735   388 net.cpp:396] debn3_2 <- deconv3_2
I0621 00:56:41.010745   388 net.cpp:347] debn3_2 -> deconv3_2 (in-place)
I0621 00:56:41.010752   388 net.cpp:98] Setting up debn3_2
I0621 00:56:41.010787   388 net.cpp:105] Top shape: 4 256 80 80 (6553600)
I0621 00:56:41.010795   388 layer_factory.hpp:78] Creating layer derelu3_2
I0621 00:56:41.010804   388 net.cpp:69] Creating Layer derelu3_2
I0621 00:56:41.010810   388 net.cpp:396] derelu3_2 <- deconv3_2
I0621 00:56:41.010818   388 net.cpp:347] derelu3_2 -> deconv3_2 (in-place)
I0621 00:56:41.010824   388 net.cpp:98] Setting up derelu3_2
I0621 00:56:41.010829   388 net.cpp:105] Top shape: 4 256 80 80 (6553600)
I0621 00:56:41.010836   388 layer_factory.hpp:78] Creating layer deconv3_3
I0621 00:56:41.010844   388 net.cpp:69] Creating Layer deconv3_3
I0621 00:56:41.010851   388 net.cpp:396] deconv3_3 <- deconv3_2
I0621 00:56:41.010862   388 net.cpp:358] deconv3_3 -> deconv3_3
I0621 00:56:41.010871   388 net.cpp:98] Setting up deconv3_3
I0621 00:56:41.019475   388 net.cpp:105] Top shape: 4 128 80 80 (3276800)
I0621 00:56:41.019490   388 layer_factory.hpp:78] Creating layer debn3_3
I0621 00:56:41.019500   388 net.cpp:69] Creating Layer debn3_3
I0621 00:56:41.019507   388 net.cpp:396] debn3_3 <- deconv3_3
I0621 00:56:41.019515   388 net.cpp:347] debn3_3 -> deconv3_3 (in-place)
I0621 00:56:41.019522   388 net.cpp:98] Setting up debn3_3
I0621 00:56:41.019554   388 net.cpp:105] Top shape: 4 128 80 80 (3276800)
I0621 00:56:41.019563   388 layer_factory.hpp:78] Creating layer derelu3_3
I0621 00:56:41.019575   388 net.cpp:69] Creating Layer derelu3_3
I0621 00:56:41.019582   388 net.cpp:396] derelu3_3 <- deconv3_3
I0621 00:56:41.019588   388 net.cpp:347] derelu3_3 -> deconv3_3 (in-place)
I0621 00:56:41.019605   388 net.cpp:98] Setting up derelu3_3
I0621 00:56:41.019613   388 net.cpp:105] Top shape: 4 128 80 80 (3276800)
I0621 00:56:41.019618   388 layer_factory.hpp:78] Creating layer unpool2
I0621 00:56:41.019625   388 net.cpp:69] Creating Layer unpool2
I0621 00:56:41.019632   388 net.cpp:396] unpool2 <- deconv3_3
I0621 00:56:41.019639   388 net.cpp:396] unpool2 <- pool2_mask
I0621 00:56:41.019649   388 net.cpp:358] unpool2 -> unpool2
I0621 00:56:41.019659   388 net.cpp:98] Setting up unpool2
I0621 00:56:41.019665   388 net.cpp:105] Top shape: 4 128 160 160 (13107200)
I0621 00:56:41.019671   388 layer_factory.hpp:78] Creating layer deconv2_1
I0621 00:56:41.019680   388 net.cpp:69] Creating Layer deconv2_1
I0621 00:56:41.019686   388 net.cpp:396] deconv2_1 <- unpool2
I0621 00:56:41.019695   388 net.cpp:358] deconv2_1 -> deconv2_1
I0621 00:56:41.019702   388 net.cpp:98] Setting up deconv2_1
I0621 00:56:41.024039   388 net.cpp:105] Top shape: 4 128 160 160 (13107200)
I0621 00:56:41.024057   388 layer_factory.hpp:78] Creating layer debn2_1
I0621 00:56:41.024066   388 net.cpp:69] Creating Layer debn2_1
I0621 00:56:41.024073   388 net.cpp:396] debn2_1 <- deconv2_1
I0621 00:56:41.024080   388 net.cpp:347] debn2_1 -> deconv2_1 (in-place)
I0621 00:56:41.024088   388 net.cpp:98] Setting up debn2_1
I0621 00:56:41.024189   388 net.cpp:105] Top shape: 4 128 160 160 (13107200)
I0621 00:56:41.024201   388 layer_factory.hpp:78] Creating layer derelu2_1
I0621 00:56:41.024209   388 net.cpp:69] Creating Layer derelu2_1
I0621 00:56:41.024214   388 net.cpp:396] derelu2_1 <- deconv2_1
I0621 00:56:41.024221   388 net.cpp:347] derelu2_1 -> deconv2_1 (in-place)
I0621 00:56:41.024229   388 net.cpp:98] Setting up derelu2_1
I0621 00:56:41.024235   388 net.cpp:105] Top shape: 4 128 160 160 (13107200)
I0621 00:56:41.024243   388 layer_factory.hpp:78] Creating layer deconv2_2
I0621 00:56:41.024253   388 net.cpp:69] Creating Layer deconv2_2
I0621 00:56:41.024260   388 net.cpp:396] deconv2_2 <- deconv2_1
I0621 00:56:41.024267   388 net.cpp:358] deconv2_2 -> deconv2_2
I0621 00:56:41.024276   388 net.cpp:98] Setting up deconv2_2
I0621 00:56:41.026629   388 net.cpp:105] Top shape: 4 64 160 160 (6553600)
I0621 00:56:41.026643   388 layer_factory.hpp:78] Creating layer debn2_2
I0621 00:56:41.026650   388 net.cpp:69] Creating Layer debn2_2
I0621 00:56:41.026657   388 net.cpp:396] debn2_2 <- deconv2_2
I0621 00:56:41.026665   388 net.cpp:347] debn2_2 -> deconv2_2 (in-place)
I0621 00:56:41.026674   388 net.cpp:98] Setting up debn2_2
I0621 00:56:41.026782   388 net.cpp:105] Top shape: 4 64 160 160 (6553600)
I0621 00:56:41.026793   388 layer_factory.hpp:78] Creating layer derelu2_2
I0621 00:56:41.026801   388 net.cpp:69] Creating Layer derelu2_2
I0621 00:56:41.026808   388 net.cpp:396] derelu2_2 <- deconv2_2
I0621 00:56:41.026816   388 net.cpp:347] derelu2_2 -> deconv2_2 (in-place)
I0621 00:56:41.026823   388 net.cpp:98] Setting up derelu2_2
I0621 00:56:41.026829   388 net.cpp:105] Top shape: 4 64 160 160 (6553600)
I0621 00:56:41.026835   388 layer_factory.hpp:78] Creating layer unpool1
I0621 00:56:41.026919   388 net.cpp:69] Creating Layer unpool1
I0621 00:56:41.026928   388 net.cpp:396] unpool1 <- deconv2_2
I0621 00:56:41.026938   388 net.cpp:396] unpool1 <- pool1_mask
I0621 00:56:41.026949   388 net.cpp:358] unpool1 -> unpool1
I0621 00:56:41.026957   388 net.cpp:98] Setting up unpool1
I0621 00:56:41.026964   388 net.cpp:105] Top shape: 4 64 320 320 (26214400)
I0621 00:56:41.026971   388 layer_factory.hpp:78] Creating layer deconv1_1
I0621 00:56:41.026981   388 net.cpp:69] Creating Layer deconv1_1
I0621 00:56:41.026988   388 net.cpp:396] deconv1_1 <- unpool1
I0621 00:56:41.026996   388 net.cpp:358] deconv1_1 -> deconv1_1
I0621 00:56:41.027004   388 net.cpp:98] Setting up deconv1_1
I0621 00:56:41.028278   388 net.cpp:105] Top shape: 4 64 320 320 (26214400)
I0621 00:56:41.028293   388 layer_factory.hpp:78] Creating layer debn1_1
I0621 00:56:41.028303   388 net.cpp:69] Creating Layer debn1_1
I0621 00:56:41.028311   388 net.cpp:396] debn1_1 <- deconv1_1
I0621 00:56:41.028331   388 net.cpp:347] debn1_1 -> deconv1_1 (in-place)
I0621 00:56:41.028339   388 net.cpp:98] Setting up debn1_1
I0621 00:56:41.028702   388 net.cpp:105] Top shape: 4 64 320 320 (26214400)
I0621 00:56:41.028761   388 layer_factory.hpp:78] Creating layer derelu1_1
I0621 00:56:41.028771   388 net.cpp:69] Creating Layer derelu1_1
I0621 00:56:41.028779   388 net.cpp:396] derelu1_1 <- deconv1_1
I0621 00:56:41.028787   388 net.cpp:347] derelu1_1 -> deconv1_1 (in-place)
I0621 00:56:41.028795   388 net.cpp:98] Setting up derelu1_1
I0621 00:56:41.028800   388 net.cpp:105] Top shape: 4 64 320 320 (26214400)
I0621 00:56:41.028806   388 layer_factory.hpp:78] Creating layer deconv1_2
I0621 00:56:41.028815   388 net.cpp:69] Creating Layer deconv1_2
I0621 00:56:41.028822   388 net.cpp:396] deconv1_2 <- deconv1_1
I0621 00:56:41.028831   388 net.cpp:358] deconv1_2 -> deconv1_2
I0621 00:56:41.028838   388 net.cpp:98] Setting up deconv1_2
I0621 00:56:41.030114   388 net.cpp:105] Top shape: 4 64 320 320 (26214400)
I0621 00:56:41.030128   388 layer_factory.hpp:78] Creating layer debn1_2
I0621 00:56:41.030136   388 net.cpp:69] Creating Layer debn1_2
I0621 00:56:41.030144   388 net.cpp:396] debn1_2 <- deconv1_2
I0621 00:56:41.030151   388 net.cpp:347] debn1_2 -> deconv1_2 (in-place)
I0621 00:56:41.030159   388 net.cpp:98] Setting up debn1_2
I0621 00:56:41.030524   388 net.cpp:105] Top shape: 4 64 320 320 (26214400)
I0621 00:56:41.030536   388 layer_factory.hpp:78] Creating layer derelu1_2
I0621 00:56:41.030544   388 net.cpp:69] Creating Layer derelu1_2
I0621 00:56:41.030550   388 net.cpp:396] derelu1_2 <- deconv1_2
I0621 00:56:41.030558   388 net.cpp:347] derelu1_2 -> deconv1_2 (in-place)
I0621 00:56:41.030565   388 net.cpp:98] Setting up derelu1_2
I0621 00:56:41.030572   388 net.cpp:105] Top shape: 4 64 320 320 (26214400)
I0621 00:56:41.030578   388 layer_factory.hpp:78] Creating layer seg-score-voc
I0621 00:56:41.030592   388 net.cpp:69] Creating Layer seg-score-voc
I0621 00:56:41.030599   388 net.cpp:396] seg-score-voc <- deconv1_2
I0621 00:56:41.030607   388 net.cpp:358] seg-score-voc -> seg-score
I0621 00:56:41.030616   388 net.cpp:98] Setting up seg-score-voc
I0621 00:56:41.030815   388 net.cpp:105] Top shape: 4 2 320 320 (819200)
I0621 00:56:41.030830   388 layer_factory.hpp:78] Creating layer seg-loss
I0621 00:56:41.030841   388 net.cpp:69] Creating Layer seg-loss
I0621 00:56:41.030848   388 net.cpp:396] seg-loss <- seg-score
I0621 00:56:41.030856   388 net.cpp:396] seg-loss <- seg-label
I0621 00:56:41.030864   388 net.cpp:358] seg-loss -> seg-loss
I0621 00:56:41.030872   388 net.cpp:98] Setting up seg-loss
I0621 00:56:41.030881   388 net.cpp:105] Top shape: 1 1 1 1 (1)
I0621 00:56:41.030887   388 net.cpp:111]     with loss weight 1
I0621 00:56:41.031008   388 net.cpp:172] seg-loss needs backward computation.
I0621 00:56:41.031019   388 net.cpp:172] seg-score-voc needs backward computation.
I0621 00:56:41.031026   388 net.cpp:172] derelu1_2 needs backward computation.
I0621 00:56:41.031033   388 net.cpp:172] debn1_2 needs backward computation.
I0621 00:56:41.031038   388 net.cpp:172] deconv1_2 needs backward computation.
…
I0621 00:56:41.035025   388 net.cpp:39] Initializing net from parameters: 
name: "train_seg_Full_anno"
layers {
  top: "data"
  top: "data2"
  top: "seg-label"
  top: "cls-label"
  name: "data"
  type: SELECT_SEG_BINARY_TWO_FRAMES
  image_data_param {
    source: "./dataset/val.txt"
    batch_size: 2
    shuffle: true
    new_height: 350
    new_width: 350
    root_folder: "./dataset"
    label_type: PIXEL
  }
  include {
    phase: TEST
  }
  transform_param {
    mirror: true
    crop_size: 320
    mean_value: 104.008
    mean_value: 116.669
    mean_value: 122.675
  }
  window_cls_data_param {
    label_dim: 20
  }
}
layers {
  bottom: "data"
  top: "conv1_1"
  name: "conv1_1"
  type: CONVOLUTION
  blobs_lr: 0
  blobs_lr: 0
  weight_decay: 1
  weight_decay: 0
  convolution_param {
    num_output: 64
    pad: 1
    kernel_size: 3
  }
  param: "conv1_1p1"
  param: "conv1_1p2"
}
layers {
  bottom: "conv1_1"
  top: "conv1_1"
  name: "relu1_1"
  type: RELU
}
layers {
  bottom: "conv1_1"
  top: "conv1_2"
  name: "conv1_2"
  type: CONVOLUTION
  blobs_lr: 0
  blobs_lr: 0
  weight_decay: 1
  weight_decay: 0
  convolution_param {
    num_output: 64
    pad: 1
    kernel_size: 3
  }
  param: "conv1_2p1"
  param: "conv1_2p2"
}
layers {
  bottom: "conv1_2"
  top: "conv1_2"
  name: "relu1_2"
  type: RELU
}
layers {
  bottom: "conv1_2"
  top: "pool1"
  top: "pool1_mask"
  name: "pool1"
  type: POOLING
  pooling_param {
    pool: MAX
    kernel_size: 2
    stride: 2
  }
}
layers {
  bottom: "pool1"
  top: "conv2_1"
  name: "conv2_1"
  type: CONVOLUTION
  blobs_lr: 0
  blobs_lr: 0
  weight_decay: 1
  weight_decay: 0
  convolution_param {
    num_output: 128
    pad: 1
    kernel_size: 3
  }
  param: "conv2_1p1"
  param: "conv2_1p2"
}
layers {
  bottom: "conv2_1"
  top: "conv2_1"
  name: "relu2_1"
  type: RELU
}
layers {
  bottom: "conv2_1"
  top: "conv2_2"
  name: "conv2_2"
  type: CONVOLUTION
  blobs_lr: 0
  blobs_lr: 0
  weight_decay: 1
  weight_decay: 0
  convolution_param {
    num_output: 128
    pad: 1
    kernel_size: 3
  }
  param: "conv2_2p1"
  param: "conv2_2p2"
}
layers {
  bottom: "conv2_2"
  top: "conv2_2"
  name: "relu2_2"
  type: RELU
}
layers {
  bottom: "conv2_2"
  top: "pool2"
  top: "pool2_mask"
  name: "pool2"
  type: POOLING
  pooling_param {
    pool: MAX
    kernel_size: 2
    stride: 2
  }
}
layers {
  bottom: "pool2"
  top: "conv3_1"
  name: "conv3_1"
  type: CONVOLUTION
  blobs_lr: 0
  blobs_lr: 0
  weight_decay: 1
  weight_decay: 0
  convolution_param {
    num_output: 256
    pad: 1
    kernel_size: 3
  }
  param: "conv3_1p1"
  param: "conv3_1p2"
}
layers {
  bottom: "conv3_1"
  top: "conv3_1"
  name: "relu3_1"
  type: RELU
}
layers {
  bottom: "conv3_1"
  top: "conv3_2"
  name: "conv3_2"
  type: CONVOLUTION
  blobs_lr: 0
  blobs_lr: 0
  weight_decay: 1
  weight_decay: 0
  convolution_param {
    num_output: 256
    pad: 1
    kernel_size: 3
  }
  param: "conv3_2p1"
  param: "conv3_2p2"
}
layers {
  bottom: "conv3_2"
  top: "conv3_2"
  name: "relu3_2"
  type: RELU
}
layers {
  bottom: "conv3_2"
  top: "conv3_3"
  name: "conv3_3"
  type: CONVOLUTION
  blobs_lr: 0
  blobs_lr: 0
  weight_decay: 1
  weight_decay: 0
  convolution_param {
    num_output: 256
    pad: 1
    kernel_size: 3
  }
  param: "conv3_3p1"
  param: "conv3_3p2"
}
layers {
  bottom: "conv3_3"
  top: "conv3_3"
  name: "relu3_3"
  type: RELU
}
layers {
  bottom: "conv3_3"
  top: "pool3"
  top: "pool3_mask"
  name: "pool3"
  type: POOLING
  pooling_param {
    pool: MAX
    kernel_size: 2
    stride: 2
  }
}
layers {
  bottom: "pool3"
  top: "conv4_1"
  name: "conv4_1"
  type: CONVOLUTION
  blobs_lr: 0
  blobs_lr: 0
  weight_decay: 1
  weight_decay: 0
  convolution_param {
    num_output: 512
    pad: 1
    kernel_size: 3
  }
  param: "conv4_1p1"
  param: "conv4_1p2"
}
layers {
  bottom: "conv4_1"
  top: "conv4_1"
  name: "relu4_1"
  type: RELU
}
layers {
  bottom: "conv4_1"
  top: "conv4_2"
  name: "conv4_2"
  type: CONVOLUTION
  blobs_lr: 0
  blobs_lr: 0
  weight_decay: 1
  weight_decay: 0
  convolution_param {
    num_output: 512
    pad: 1
    kernel_size: 3
  }
  param: "conv4_2p1"
  param: "conv4_2p2"
}
layers {
  bottom: "conv4_2"
  top: "conv4_2"
  name: "relu4_2"
  type: RELU
}
layers {
  bottom: "conv4_2"
  top: "conv4_3"
  name: "conv4_3"
  type: CONVOLUTION
  blobs_lr: 0
  blobs_lr: 0
  weight_decay: 1
  weight_decay: 0
  convolution_param {
    num_output: 512
    pad: 1
    kernel_size: 3
  }
  param: "conv4_3p1"
  param: "conv4_3p2"
}
layers {
  bottom: "conv4_3"
  top: "conv4_3"
  name: "relu4_3"
  type: RELU
}
layers {
  bottom: "conv4_3"
  top: "pool4"
  top: "pool4_mask"
  name: "pool4"
  type: POOLING
  pooling_param {
    pool: MAX
    kernel_size: 2
    stride: 2
  }
}
layers {
  bottom: "pool4"
  top: "conv5_1"
  name: "conv5_1"
  type: CONVOLUTION
  blobs_lr: 0
  blobs_lr: 0
  weight_decay: 1
  weight_decay: 0
  convolution_param {
    num_output: 512
    pad: 1
    kernel_size: 3
  }
  param: "conv5_1p1"
  param: "conv5_1p2"
}
layers {
  bottom: "conv5_1"
  top: "conv5_1"
  name: "relu5_1"
  type: RELU
}
layers {
  bottom: "conv5_1"
  top: "conv5_2"
  name: "conv5_2"
  type: CONVOLUTION
  blobs_lr: 0
  blobs_lr: 0
  weight_decay: 1
  weight_decay: 0
  convolution_param {
    num_output: 512
    pad: 1
    kernel_size: 3
  }
  param: "conv5_2p1"
  param: "conv5_2p2"
}
layers {
  bottom: "conv5_2"
  top: "conv5_2"
  name: "relu5_2"
  type: RELU
}
layers {
  bottom: "conv5_2"
  top: "conv5_3"
  name: "conv5_3"
  type: CONVOLUTION
  blobs_lr: 0
  blobs_lr: 0
  weight_decay: 1
  weight_decay: 0
  convolution_param {
    num_output: 512
    pad: 1
    kernel_size: 3
  }
  param: "conv5_3p1"
  param: "conv5_3p2"
}
layers {
  bottom: "conv5_3"
  top: "conv5_3"
  name: "relu5_3"
  type: RELU
}
layers {
  bottom: "conv5_3"
  top: "pool5"
  top: "pool5_mask"
  name: "pool5"
  type: POOLING
  pooling_param {
    pool: MAX
    kernel_size: 2
    stride: 2
  }
}
layers {
  bottom: "data2"
  top: "conv1_1b"
  name: "conv1_1b"
  type: CONVOLUTION
  blobs_lr: 0
  blobs_lr: 0
  weight_decay: 1
  weight_decay: 0
  convolution_param {
    num_output: 64
    pad: 1
    kernel_size: 3
  }
  param: "conv1_1p1"
  param: "conv1_1p2"
}
layers {
  bottom: "conv1_1b"
  top: "conv1_1b"
  name: "relu1_1b"
  type: RELU
}
layers {
  bottom: "conv1_1b"
  top: "conv1_2b"
  name: "conv1_2b"
  type: CONVOLUTION
  blobs_lr: 0
  blobs_lr: 0
  weight_decay: 1
  weight_decay: 0
  convolution_param {
    num_output: 64
    pad: 1
    kernel_size: 3
  }
  param: "conv1_2p1"
  param: "conv1_2p2"
}
layers {
  bottom: "conv1_2b"
  top: "conv1_2b"
  name: "relu1_2b"
  type: RELU
}
layers {
  bottom: "conv1_2b"
  top: "pool1b"
  name: "pool1b"
  type: POOLING
  pooling_param {
    pool: MAX
    kernel_size: 2
    stride: 2
  }
}
layers {
  bottom: "pool1b"
  top: "conv2_1b"
  name: "conv2_1b"
  type: CONVOLUTION
  blobs_lr: 0
  blobs_lr: 0
  weight_decay: 1
  weight_decay: 0
  convolution_param {
    num_output: 128
    pad: 1
    kernel_size: 3
  }
  param: "conv2_1p1"
  param: "conv2_1p2"
}
layers {
  bottom: "conv2_1b"
  top: "conv2_1b"
  name: "relu2_1b"
  type: RELU
}
layers {
  bottom: "conv2_1b"
  top: "conv2_2b"
  name: "conv2_2b"
  type: CONVOLUTION
  blobs_lr: 0
  blobs_lr: 0
  weight_decay: 1
  weight_decay: 0
  convolution_param {
    num_output: 128
    pad: 1
    kernel_size: 3
  }
  param: "conv2_2p1"
  param: "conv2_2p2"
}
layers {
  bottom: "conv2_2b"
  top: "conv2_2b"
  name: "relu2_2b"
  type: RELU
}
layers {
  bottom: "conv2_2b"
  top: "pool2b"
  name: "pool2b"
  type: POOLING
  pooling_param {
    pool: MAX
    kernel_size: 2
    stride: 2
  }
}
layers {
  bottom: "pool2b"
  top: "conv3_1b"
  name: "conv3_1b"
  type: CONVOLUTION
  blobs_lr: 0
  blobs_lr: 0
  weight_decay: 1
  weight_decay: 0
  convolution_param {
    num_output: 256
    pad: 1
    kernel_size: 3
  }
  param: "conv3_1p1"
  param: "conv3_1p2"
}
layers {
  bottom: "conv3_1b"
  top: "conv3_1b"
  name: "relu3_1b"
  type: RELU
}
layers {
  bottom: "conv3_1b"
  top: "conv3_2b"
  name: "conv3_2b"
  type: CONVOLUTION
  blobs_lr: 0
  blobs_lr: 0
  weight_decay: 1
  weight_decay: 0
  convolution_param {
    num_output: 256
    pad: 1
    kernel_size: 3
  }
  param: "conv3_2p1"
  param: "conv3_2p2"
}
layers {
  bottom: "conv3_2b"
  top: "conv3_2b"
  name: "relu3_2b"
  type: RELU
}
layers {
  bottom: "conv3_2b"
  top: "conv3_3b"
  name: "conv3_3b"
  type: CONVOLUTION
  blobs_lr: 0
  blobs_lr: 0
  weight_decay: 1
  weight_decay: 0
  convolution_param {
    num_output: 256
    pad: 1
    kernel_size: 3
  }
  param: "conv3_3p1"
  param: "conv3_3p2"
}
layers {
  bottom: "conv3_3b"
  top: "conv3_3b"
  name: "relu3_3b"
  type: RELU
}
layers {
  bottom: "conv3_3b"
  top: "pool3b"
  name: "pool3b"
  type: POOLING
  pooling_param {
    pool: MAX
    kernel_size: 2
    stride: 2
  }
}
layers {
  bottom: "pool3b"
  top: "conv4_1b"
  name: "conv4_1b"
  type: CONVOLUTION
  blobs_lr: 0
  blobs_lr: 0
  weight_decay: 1
  weight_decay: 0
  convolution_param {
    num_output: 512
    pad: 1
    kernel_size: 3
  }
  param: "conv4_1p1"
  param: "conv4_1p2"
}
layers {
  bottom: "conv4_1b"
  top: "conv4_1b"
  name: "relu4_1b"
  type: RELU
}
layers {
  bottom: "conv4_1b"
  top: "conv4_2b"
  name: "conv4_2b"
  type: CONVOLUTION
  blobs_lr: 0
  blobs_lr: 0
  weight_decay: 1
  weight_decay: 0
  convolution_param {
    num_output: 512
    pad: 1
    kernel_size: 3
  }
  param: "conv4_2p1"
  param: "conv4_2p2"
}
layers {
  bottom: "conv4_2b"
  top: "conv4_2b"
  name: "relu4_2b"
  type: RELU
}
layers {
  bottom: "conv4_2b"
  top: "conv4_3b"
  name: "conv4_3b"
  type: CONVOLUTION
  blobs_lr: 0
  blobs_lr: 0
  weight_decay: 1
  weight_decay: 0
  convolution_param {
    num_output: 512
    pad: 1
    kernel_size: 3
  }
  param: "conv4_3p1"
  param: "conv4_3p2"
}
layers {
  bottom: "conv4_3b"
  top: "conv4_3b"
  name: "relu4_3b"
  type: RELU
}
layers {
  bottom: "conv4_3b"
  top: "pool4b"
  name: "pool4b"
  type: POOLING
  pooling_param {
    pool: MAX
    kernel_size: 2
    stride: 2
  }
}
layers {
  bottom: "pool4b"
  top: "conv5_1b"
  name: "conv5_1b"
  type: CONVOLUTION
  blobs_lr: 0
  blobs_lr: 0
  weight_decay: 1
  weight_decay: 0
  convolution_param {
    num_output: 512
    pad: 1
    kernel_size: 3
  }
  param: "conv5_1p1"
  param: "conv5_1p2"
}
layers {
  bottom: "conv5_1b"
  top: "conv5_1b"
  name: "relu5_1b"
  type: RELU
}
layers {
  bottom: "conv5_1b"
  top: "conv5_2b"
  name: "conv5_2b"
  type: CONVOLUTION
  blobs_lr: 0
  blobs_lr: 0
  weight_decay: 1
  weight_decay: 0
  convolution_param {
    num_output: 512
    pad: 1
    kernel_size: 3
  }
  param: "conv5_2p1"
  param: "conv5_2p2"
}
layers {
  bottom: "conv5_2b"
  top: "conv5_2b"
  name: "relu5_2b"
  type: RELU
}
layers {
  bottom: "conv5_2b"
  top: "conv5_3b"
  name: "conv5_3b"
  type: CONVOLUTION
  blobs_lr: 0
  blobs_lr: 0
  weight_decay: 1
  weight_decay: 0
  convolution_param {
    num_output: 512
    pad: 1
    kernel_size: 3
  }
  param: "conv5_3p1"
  param: "conv5_3p2"
}
layers {
  bottom: "conv5_3b"
  top: "conv5_3b"
  name: "relu5_3b"
  type: RELU
}
layers {
  bottom: "conv5_3b"
  top: "pool5b"
  name: "pool5b"
  type: POOLING
  pooling_param {
    pool: MAX
    kernel_size: 2
    stride: 2
  }
}
layers {
  bottom: "pool5"
  top: "fc6"
  name: "fc6"
  type: CONVOLUTION
  blobs_lr: 0
  blobs_lr: 0
  weight_decay: 1
  weight_decay: 0
  convolution_param {
    num_output: 4096
    kernel_size: 7
  }
}
layers {
  bottom: "fc6"
  top: "fc6"
  top: "relu6-mask"
  name: "relu6"
  type: RELU
}
layers {
  bottom: "fc6"
  top: "fc7"
  name: "fc7"
  type: CONVOLUTION
  blobs_lr: 0
  blobs_lr: 0
  weight_decay: 1
  weight_decay: 0
  convolution_param {
    num_output: 4096
    kernel_size: 1
  }
}
layers {
  bottom: "fc7"
  top: "fc7"
  top: "relu7-mask"
  name: "relu7"
  type: RELU
}
layers {
  bottom: "fc7"
  top: "cls-score"
  name: "cls-score-voc"
  type: CONVOLUTION
  blobs_lr: 0
  blobs_lr: 0
  weight_decay: 1
  weight_decay: 0
  convolution_param {
    num_output: 20
    kernel_size: 1
    weight_filler {
      type: "gaussian"
      std: 0.01
    }
    bias_filler {
      type: "constant"
      value: 0
    }
  }
}
layers {
  bottom: "cls-score"
  top: "cls-score-pooled"
  top: "score-pool-mask"
  name: "avg-pool"
  type: POOLING
  pooling_param {
    pool: MAX
    kernel_size: 4
    stride: 1
  }
}
layers {
  bottom: "cls-score-pooled"
  top: "cls-score-sigmoid"
  name: "cls-score-sigmoid"
  type: SIGMOID
}
layers {
  bottom: "cls-score-sigmoid"
  bottom: "cls-label"
  top: "cls-score-masked"
  name: "cls-score-mask"
  type: ELTWISE
  eltwise_param {
    operation: PROD
  }
}
layers {
  bottom: "cls-score-masked"
  bottom: "score-pool-mask"
  top: "cls-score-unpooled"
  name: "avg-unpool"
  type: UNPOOLING
  unpooling_param {
    unpool: MAX
    kernel_size: 4
    stride: 1
    unpool_size: 4
  }
}
layers {
  bottom: "cls-score-unpooled"
  top: "fc7-bp"
  name: "cls-score-voc-bp"
  type: CONVOLUTION
  blobs_lr: 0
  blobs_lr: 0
  weight_decay: 1
  weight_decay: 0
  convolution_param {
    num_output: 4096
    kernel_size: 1
    weight_filler {
      type: "gaussian"
      std: 0.01
    }
    bias_filler {
      type: "constant"
      value: 0
    }
  }
}
layers {
  bottom: "fc7-bp"
  bottom: "relu7-mask"
  top: "fc7-bp"
  name: "relu7-mask"
  type: ELTWISE
  eltwise_param {
    operation: PROD
  }
}
layers {
  bottom: "fc7-bp"
  top: "fc6-bp"
  name: "fc7-bp"
  type: DECONVOLUTION
  blobs_lr: 0
  blobs_lr: 0
  weight_decay: 1
  weight_decay: 0
  convolution_param {
    num_output: 4096
    kernel_size: 1
  }
}
layers {
  bottom: "fc6-bp"
  bottom: "relu6-mask"
  top: "fc6-bp"
  name: "relu6-mask"
  type: ELTWISE
  eltwise_param {
    operation: PROD
  }
}
layers {
  bottom: "fc6-bp"
  top: "pool5-bp"
  name: "fc6-bp"
  type: DECONVOLUTION
  blobs_lr: 0
  blobs_lr: 0
  weight_decay: 1
  weight_decay: 0
  convolution_param {
    num_output: 512
    kernel_size: 7
  }
}
layers {
  bottom: "pool5"
  top: "pool5-bn"
  name: "pool5-bn"
  type: BN
  bn_param {
    scale_filler {
      type: "constant"
      value: 1
    }
    shift_filler {
      type: "constant"
      value: 0.001
    }
  }
}
layers {
  bottom: "pool5b"
  top: "pool5b-bn"
  name: "pool5b-bn"
  type: BN
  bn_param {
    scale_filler {
      type: "constant"
      value: 1
    }
    shift_filler {
      type: "constant"
      value: 0.001
    }
  }
}
layers {
  bottom: "pool5-bp"
  top: "pool5-bp-bn"
  name: "pool5-bp-bn"
  type: BN
  bn_param {
    scale_filler {
      type: "constant"
      value: 1
    }
    shift_filler {
      type: "constant"
      value: 0.001
    }
  }
}
layers {
  bottom: "pool5-bn"
  bottom: "pool5b-bn"
  bottom: "pool5-bp-bn"
  top: "pool5-concat"
  name: "pool5-concat"
  type: CONCAT
}
layers {
  bottom: "pool5-concat"
  top: "fc6-seg"
  name: "fc6-seg"
  type: CONVOLUTION
  blobs_lr: 1
  blobs_lr: 2
  weight_decay: 1
  weight_decay: 0
  convolution_param {
    num_output: 2048
    kernel_size: 7
    weight_filler {
      type: "gaussian"
      std: 0.01
    }
    bias_filler {
      type: "constant"
      value: 0
    }
  }
}
layers {
  bottom: "fc6-seg"
  top: "fc6-seg"
  name: "bnfc6-seg"
  type: BN
  bn_param {
    scale_filler {
      type: "constant"
      value: 1
    }
    shift_filler {
      type: "constant"
      value: 0.001
    }
  }
}
layers {
  bottom: "fc6-seg"
  top: "fc6-seg"
  name: "relu6-seg"
  type: RELU
}
layers {
  bottom: "fc6-seg"
  top: "fc7-seg"
  name: "fc7-seg"
  type: CONVOLUTION
  blobs_lr: 1
  blobs_lr: 2
  weight_decay: 1
  weight_decay: 0
  convolution_param {
    num_output: 2048
    kernel_size: 1
    weight_filler {
      type: "gaussian"
      std: 0.01
    }
    bias_filler {
      type: "constant"
      value: 0
    }
  }
}
layers {
  bottom: "fc7-seg"
  top: "fc7-seg"
  name: "bnfc7-seg"
  type: BN
  bn_param {
    scale_filler {
      type: "constant"
      value: 1
    }
    shift_filler {
      type: "constant"
      value: 0.001
    }
  }
}
layers {
  bottom: "fc7-seg"
  top: "fc7-seg"
  name: "relu7-seg"
  type: RELU
}
layers {
  bottom: "fc7-seg"
  top: "fc6-deconv"
  name: "fc6-deconv"
  type: DECONVOLUTION
  blobs_lr: 1
  blobs_lr: 2
  weight_decay: 1
  weight_decay: 0
  convolution_param {
    num_output: 512
    kernel_size: 7
    weight_filler {
      type: "gaussian"
      std: 0.01
    }
    bias_filler {
      type: "constant"
      value: 0
    }
  }
}
layers {
  bottom: "fc6-deconv"
  top: "fc6-deconv"
  name: "fc6-deconv-bn"
  type: BN
  bn_param {
    scale_filler {
      type: "constant"
      value: 1
    }
    shift_filler {
      type: "constant"
      value: 0.001
    }
  }
}
layers {
  bottom: "fc6-deconv"
  top: "fc6-deconv"
  name: "fc6-deconv-relu"
  type: RELU
}
layers {
  bottom: "fc6-deconv"
  bottom: "pool5_mask"
  top: "unpool5"
  name: "unpool5"
  type: UNPOOLING
  unpooling_param {
    unpool: MAX
    kernel_size: 2
    stride: 2
    unpool_size: 20
  }
}
layers {
  bottom: "unpool5"
  top: "deconv5_1"
  name: "deconv5_1"
  type: DECONVOLUTION
  blobs_lr: 1
  blobs_lr: 2
  weight_decay: 1
  weight_decay: 0
  convolution_param {
    num_output: 512
    pad: 1
    kernel_size: 3
    weight_filler {
      type: "gaussian"
      std: 0.01
    }
    bias_filler {
      type: "constant"
      value: 0
    }
  }
}
layers {
  bottom: "deconv5_1"
  top: "deconv5_1"
  name: "debn5_1"
  type: BN
  bn_param {
    scale_filler {
      type: "constant"
      value: 1
    }
    shift_filler {
      type: "constant"
      value: 0.001
    }
  }
}
layers {
  bottom: "deconv5_1"
  top: "deconv5_1"
  name: "derelu5_1"
  type: RELU
}
layers {
  bottom: "deconv5_1"
  top: "deconv5_2"
  name: "deconv5_2"
  type: DECONVOLUTION
  blobs_lr: 1
  blobs_lr: 2
  weight_decay: 1
  weight_decay: 0
  convolution_param {
    num_output: 512
    pad: 1
    kernel_size: 3
    weight_filler {
      type: "gaussian"
      std: 0.01
    }
    bias_filler {
      type: "constant"
      value: 0
    }
  }
}
layers {
  bottom: "deconv5_2"
  top: "deconv5_2"
  name: "debn5_2"
  type: BN
  bn_param {
    scale_filler {
      type: "constant"
      value: 1
    }
    shift_filler {
      type: "constant"
      value: 0.001
    }
  }
}
layers {
  bottom: "deconv5_2"
  top: "deconv5_2"
  name: "derelu5_2"
  type: RELU
}
layers {
  bottom: "deconv5_2"
  top: "deconv5_3"
  name: "deconv5_3"
  type: DECONVOLUTION
  blobs_lr: 1
  blobs_lr: 2
  weight_decay: 1
  weight_decay: 0
  convolution_param {
    num_output: 512
    pad: 1
    kernel_size: 3
    weight_filler {
      type: "gaussian"
      std: 0.01
    }
    bias_filler {
      type: "constant"
      value: 0
    }
  }
}
layers {
  bottom: "deconv5_3"
  top: "deconv5_3"
  name: "debn5_3"
  type: BN
  bn_param {
    scale_filler {
      type: "constant"
      value: 1
    }
    shift_filler {
      type: "constant"
      value: 0.001
    }
  }
}
layers {
  bottom: "deconv5_3"
  top: "deconv5_3"
  name: "derelu5_3"
  type: RELU
}
layers {
  bottom: "deconv5_3"
  bottom: "pool4_mask"
  top: "unpool4"
  name: "unpool4"
  type: UNPOOLING
  unpooling_param {
    unpool: MAX
    kernel_size: 2
    stride: 2
    unpool_size: 40
  }
}
layers {
  bottom: "unpool4"
  top: "deconv4_1"
  name: "deconv4_1"
  type: DECONVOLUTION
  blobs_lr: 1
  blobs_lr: 2
  weight_decay: 1
  weight_decay: 0
  convolution_param {
    num_output: 512
    pad: 1
    kernel_size: 3
    weight_filler {
      type: "gaussian"
      std: 0.01
    }
    bias_filler {
      type: "constant"
      value: 0
    }
  }
}
layers {
  bottom: "deconv4_1"
  top: "deconv4_1"
  name: "debn4_1"
  type: BN
  bn_param {
    scale_filler {
      type: "constant"
      value: 1
    }
    shift_filler {
      type: "constant"
      value: 0.001
    }
  }
}
layers {
  bottom: "deconv4_1"
  top: "deconv4_1"
  name: "derelu4_1"
  type: RELU
}
layers {
  bottom: "deconv4_1"
  top: "deconv4_2"
  name: "deconv4_2"
  type: DECONVOLUTION
  blobs_lr: 1
  blobs_lr: 2
  weight_decay: 1
  weight_decay: 0
  convolution_param {
    num_output: 512
    pad: 1
    kernel_size: 3
    weight_filler {
      type: "gaussian"
      std: 0.01
    }
    bias_filler {
      type: "constant"
      value: 0
    }
  }
}
layers {
  bottom: "deconv4_2"
  top: "deconv4_2"
  name: "debn4_2"
  type: BN
  bn_param {
    scale_filler {
      type: "constant"
      value: 1
    }
    shift_filler {
      type: "constant"
      value: 0.001
    }
  }
}
layers {
  bottom: "deconv4_2"
  top: "deconv4_2"
  name: "derelu4_2"
  type: RELU
}
layers {
  bottom: "deconv4_2"
  top: "deconv4_3"
  name: "deconv4_3"
  type: DECONVOLUTION
  blobs_lr: 1
  blobs_lr: 2
  weight_decay: 1
  weight_decay: 0
  convolution_param {
    num_output: 256
    pad: 1
    kernel_size: 3
    weight_filler {
      type: "gaussian"
      std: 0.01
    }
    bias_filler {
      type: "constant"
      value: 0
    }
  }
}
layers {
  bottom: "deconv4_3"
  top: "deconv4_3"
  name: "debn4_3"
  type: BN
  bn_param {
    scale_filler {
      type: "constant"
      value: 1
    }
    shift_filler {
      type: "constant"
      value: 0.001
    }
  }
}
layers {
  bottom: "deconv4_3"
  top: "deconv4_3"
  name: "derelu4_3"
  type: RELU
}
layers {
  bottom: "deconv4_3"
  bottom: "pool3_mask"
  top: "unpool3"
  name: "unpool3"
  type: UNPOOLING
  unpooling_param {
    unpool: MAX
    kernel_size: 2
    stride: 2
    unpool_size: 80
  }
}
layers {
  bottom: "unpool3"
  top: "deconv3_1"
  name: "deconv3_1"
  type: DECONVOLUTION
  blobs_lr: 1
  blobs_lr: 2
  weight_decay: 1
  weight_decay: 0
  convolution_param {
    num_output: 256
    pad: 1
    kernel_size: 3
    weight_filler {
      type: "gaussian"
      std: 0.01
    }
    bias_filler {
      type: "constant"
      value: 0
    }
  }
}
layers {
  bottom: "deconv3_1"
  top: "deconv3_1"
  name: "debn3_1"
  type: BN
  bn_param {
    scale_filler {
      type: "constant"
      value: 1
    }
    shift_filler {
      type: "constant"
      value: 0.001
    }
  }
}
layers {
  bottom: "deconv3_1"
  top: "deconv3_1"
  name: "derelu3_1"
  type: RELU
}
layers {
  bottom: "deconv3_1"
  top: "deconv3_2"
  name: "deconv3_2"
  type: DECONVOLUTION
  blobs_lr: 1
  blobs_lr: 2
  weight_decay: 1
  weight_decay: 0
  convolution_param {
    num_output: 256
    pad: 1
    kernel_size: 3
    weight_filler {
      type: "gaussian"
      std: 0.01
    }
    bias_filler {
      type: "constant"
      value: 0
    }
  }
}
layers {
  bottom: "deconv3_2"
  top: "deconv3_2"
  name: "debn3_2"
  type: BN
  bn_param {
    scale_filler {
      type: "constant"
      value: 1
    }
    shift_filler {
      type: "constant"
      value: 0.001
    }
  }
}
layers {
  bottom: "deconv3_2"
  top: "deconv3_2"
  name: "derelu3_2"
  type: RELU
}
layers {
  bottom: "deconv3_2"
  top: "deconv3_3"
  name: "deconv3_3"
  type: DECONVOLUTION
  blobs_lr: 1
  blobs_lr: 2
  weight_decay: 1
  weight_decay: 0
  convolution_param {
    num_output: 128
    pad: 1
    kernel_size: 3
    weight_filler {
      type: "gaussian"
      std: 0.01
    }
    bias_filler {
      type: "constant"
      value: 0
    }
  }
}
layers {
  bottom: "deconv3_3"
  top: "deconv3_3"
  name: "debn3_3"
  type: BN
  bn_param {
    scale_filler {
      type: "constant"
      value: 1
    }
    shift_filler {
      type: "constant"
      value: 0.001
    }
  }
}
layers {
  bottom: "deconv3_3"
  top: "deconv3_3"
  name: "derelu3_3"
  type: RELU
}
layers {
  bottom: "deconv3_3"
  bottom: "pool2_mask"
  top: "unpool2"
  name: "unpool2"
  type: UNPOOLING
  unpooling_param {
    unpool: MAX
    kernel_size: 2
    stride: 2
    unpool_size: 160
  }
}
layers {
  bottom: "unpool2"
  top: "deconv2_1"
  name: "deconv2_1"
  type: DECONVOLUTION
  blobs_lr: 1
  blobs_lr: 2
  weight_decay: 1
  weight_decay: 0
  convolution_param {
    num_output: 128
    pad: 1
    kernel_size: 3
    weight_filler {
      type: "gaussian"
      std: 0.01
    }
    bias_filler {
      type: "constant"
      value: 0
    }
  }
}
layers {
  bottom: "deconv2_1"
  top: "deconv2_1"
  name: "debn2_1"
  type: BN
  bn_param {
    scale_filler {
      type: "constant"
      value: 1
    }
    shift_filler {
      type: "constant"
      value: 0.001
    }
  }
}
layers {
  bottom: "deconv2_1"
  top: "deconv2_1"
  name: "derelu2_1"
  type: RELU
}
layers {
  bottom: "deconv2_1"
  top: "deconv2_2"
  name: "deconv2_2"
  type: DECONVOLUTION
  blobs_lr: 1
  blobs_lr: 2
  weight_decay: 1
  weight_decay: 0
  convolution_param {
    num_output: 64
    pad: 1
    kernel_size: 3
    weight_filler {
      type: "gaussian"
      std: 0.01
    }
    bias_filler {
      type: "constant"
      value: 0
    }
  }
}
layers {
  bottom: "deconv2_2"
  top: "deconv2_2"
  name: "debn2_2"
  type: BN
  bn_param {
    scale_filler {
      type: "constant"
      value: 1
    }
    shift_filler {
      type: "constant"
      value: 0.001
    }
  }
}
layers {
  bottom: "deconv2_2"
  top: "deconv2_2"
  name: "derelu2_2"
  type: RELU
}
layers {
  bottom: "deconv2_2"
  bottom: "pool1_mask"
  top: "unpool1"
  name: "unpool1"
  type: UNPOOLING
  unpooling_param {
    unpool: MAX
    kernel_size: 2
    stride: 2
    unpool_size: 320
  }
}
layers {
  bottom: "unpool1"
  top: "deconv1_1"
  name: "deconv1_1"
  type: DECONVOLUTION
  blobs_lr: 1
  blobs_lr: 2
  weight_decay: 1
  weight_decay: 0
  convolution_param {
    num_output: 64
    pad: 1
    kernel_size: 3
    weight_filler {
      type: "gaussian"
      std: 0.01
    }
    bias_filler {
      type: "constant"
      value: 0
    }
  }
}
layers {
  bottom: "deconv1_1"
  top: "deconv1_1"
  name: "debn1_1"
  type: BN
  bn_param {
    scale_filler {
      type: "constant"
      value: 1
    }
    shift_filler {
      type: "constant"
      value: 0.001
    }
  }
}
layers {
  bottom: "deconv1_1"
  top: "deconv1_1"
  name: "derelu1_1"
  type: RELU
}
layers {
  bottom: "deconv1_1"
  top: "deconv1_2"
  name: "deconv1_2"
  type: DECONVOLUTION
  blobs_lr: 1
  blobs_lr: 2
  weight_decay: 1
  weight_decay: 0
  convolution_param {
    num_output: 64
    pad: 1
    kernel_size: 3
    weight_filler {
      type: "gaussian"
      std: 0.01
    }
    bias_filler {
      type: "constant"
      value: 0
    }
  }
}
layers {
  bottom: "deconv1_2"
  top: "deconv1_2"
  name: "debn1_2"
  type: BN
  bn_param {
    scale_filler {
      type: "constant"
      value: 1
    }
    shift_filler {
      type: "constant"
      value: 0.001
    }
  }
}
layers {
  bottom: "deconv1_2"
  top: "deconv1_2"
  name: "derelu1_2"
  type: RELU
}
layers {
  bottom: "deconv1_2"
  top: "seg-score"
  name: "seg-score-voc"
  type: CONVOLUTION
  blobs_lr: 1
  blobs_lr: 2
  weight_decay: 1
  weight_decay: 0
  convolution_param {
    num_output: 2
    kernel_size: 1
    weight_filler {
      type: "gaussian"
      std: 0.01
    }
    bias_filler {
      type: "constant"
      value: 0
    }
  }
}
layers {
  bottom: "seg-score"
  bottom: "seg-label"
  top: "seg-accuracy"
  name: "seg-accuracy"
  type: ELTWISE_ACCURACY
  include {
    phase: TEST
  }
  eltwise_accuracy_param {
    ignore_label: 255
  }
}
layers {
  bottom: "seg-score"
  bottom: "seg-label"
  top: "seg-loss"
  name: "seg-loss"
  type: SOFTMAX_LOSS
  loss_param {
    ignore_label: 255
  }
}
state {
  phase: TEST
}
I0621 00:56:41.039336   388 layer_factory.hpp:78] Creating layer data
I0621 00:56:41.039357   388 net.cpp:69] Creating Layer data
I0621 00:56:41.039366   388 net.cpp:358] data -> data
I0621 00:56:41.039377   388 net.cpp:358] data -> data2
I0621 00:56:41.039388   388 net.cpp:358] data -> seg-label
I0621 00:56:41.039398   388 net.cpp:358] data -> cls-label
I0621 00:56:41.039407   388 net.cpp:98] Setting up data
I0621 00:56:41.039425   388 select_seg_binary_two_frames_layer.cpp:47] Opening file ./dataset/val.txt
I0621 00:56:41.050000   388 select_seg_binary_two_frames_layer.cpp:86] Shuffling data
I0621 00:56:41.050851   388 select_seg_binary_two_frames_layer.cpp:91] A total of 3677 images.
I0621 00:56:41.055181   388 select_seg_binary_two_frames_layer.cpp:146] output data size: 2,3,320,320
I0621 00:56:41.055202   388 select_seg_binary_two_frames_layer.cpp:150] output data2 size: 2,3,320,320
I0621 00:56:41.055209   388 select_seg_binary_two_frames_layer.cpp:154] output label size: 2,1,320,320
I0621 00:56:41.055217   388 select_seg_binary_two_frames_layer.cpp:158] output class label size: 2,20,1,1
I0621 00:56:41.056279   388 net.cpp:105] Top shape: 2 3 320 320 (614400)
I0621 00:56:41.056293   388 net.cpp:105] Top shape: 2 3 320 320 (614400)
I0621 00:56:41.056300   388 net.cpp:105] Top shape: 2 1 320 320 (204800)
I0621 00:56:41.056308   388 net.cpp:105] Top shape: 2 20 1 1 (40)
I0621 00:56:41.056314   388 layer_factory.hpp:78] Creating layer seg-label_data_2_split
I0621 00:56:41.056325   388 net.cpp:69] Creating Layer seg-label_data_2_split
I0621 00:56:41.056334   388 net.cpp:396] seg-label_data_2_split <- seg-label
I0621 00:56:41.056341   388 net.cpp:358] seg-label_data_2_split -> seg-label_data_2_split_0
I0621 00:56:41.056351   388 net.cpp:358] seg-label_data_2_split -> seg-label_data_2_split_1
I0621 00:56:41.056360   388 net.cpp:98] Setting up seg-label_data_2_split
I0621 00:56:41.056367   388 net.cpp:105] Top shape: 2 1 320 320 (204800)
I0621 00:56:41.056373   388 net.cpp:105] Top shape: 2 1 320 320 (204800)
I0621 00:56:41.056380   388 layer_factory.hpp:78] Creating layer conv1_1
I0621 00:56:41.056387   388 net.cpp:69] Creating Layer conv1_1
I0621 00:56:41.056394   388 net.cpp:396] conv1_1 <- data
I0621 00:56:41.056429   388 net.cpp:358] conv1_1 -> conv1_1
I0621 00:56:41.056438   388 net.cpp:98] Setting up conv1_1
I0621 00:56:41.056676   388 net.cpp:105] Top shape: 2 64 320 320 (13107200)
I0621 00:56:41.056690   388 layer_factory.hpp:78] Creating layer relu1_1
I0621 00:56:41.056699   388 net.cpp:69] Creating Layer relu1_1
I0621 00:56:41.056705   388 net.cpp:396] relu1_1 <- conv1_1
I0621 00:56:41.056712   388 net.cpp:347] relu1_1 -> conv1_1 (in-place)
I0621 00:56:41.056720   388 net.cpp:98] Setting up relu1_1
I0621 00:56:41.056726   388 net.cpp:105] Top shape: 2 64 320 320 (13107200)
I0621 00:56:41.056733   388 layer_factory.hpp:78] Creating layer conv1_2
I0621 00:56:41.056741   388 net.cpp:69] Creating Layer conv1_2
I0621 00:56:41.056747   388 net.cpp:396] conv1_2 <- conv1_1
I0621 00:56:41.056757   388 net.cpp:358] conv1_2 -> conv1_2
I0621 00:56:41.056779   388 net.cpp:98] Setting up conv1_2
I0621 00:56:41.057085   388 net.cpp:105] Top shape: 2 64 320 320 (13107200)
I0621 00:56:41.057096   388 layer_factory.hpp:78] Creating layer relu1_2
I0621 00:56:41.057106   388 net.cpp:69] Creating Layer relu1_2
I0621 00:56:41.057113   388 net.cpp:396] relu1_2 <- conv1_2
I0621 00:56:41.057121   388 net.cpp:347] relu1_2 -> conv1_2 (in-place)
I0621 00:56:41.057128   388 net.cpp:98] Setting up relu1_2
I0621 00:56:41.057134   388 net.cpp:105] Top shape: 2 64 320 320 (13107200)
I0621 00:56:41.057140   388 layer_factory.hpp:78] Creating layer pool1
I0621 00:56:41.057147   388 net.cpp:69] Creating Layer pool1
I0621 00:56:41.057154   388 net.cpp:396] pool1 <- conv1_2
I0621 00:56:41.057162   388 net.cpp:358] pool1 -> pool1
I0621 00:56:41.057170   388 net.cpp:358] pool1 -> pool1_mask
I0621 00:56:41.057179   388 net.cpp:98] Setting up pool1
I0621 00:56:41.057190   388 net.cpp:105] Top shape: 2 64 160 160 (3276800)
I0621 00:56:41.057196   388 net.cpp:105] Top shape: 2 64 160 160 (3276800)
I0621 00:56:41.057204   388 layer_factory.hpp:78] Creating layer conv2_1
I0621 00:56:41.057210   388 net.cpp:69] Creating Layer conv2_1
I0621 00:56:41.057217   388 net.cpp:396] conv2_1 <- pool1
I0621 00:56:41.057227   388 net.cpp:358] conv2_1 -> conv2_1
I0621 00:56:41.057235   388 net.cpp:98] Setting up conv2_1
I0621 00:56:41.057471   388 net.cpp:105] Top shape: 2 128 160 160 (6553600)
I0621 00:56:41.057484   388 layer_factory.hpp:78] Creating layer relu2_1
I0621 00:56:41.057493   388 net.cpp:69] Creating Layer relu2_1
I0621 00:56:41.057500   388 net.cpp:396] relu2_1 <- conv2_1
I0621 00:56:41.057509   388 net.cpp:347] relu2_1 -> conv2_1 (in-place)
I0621 00:56:41.057518   388 net.cpp:98] Setting up relu2_1
I0621 00:56:41.057523   388 net.cpp:105] Top shape: 2 128 160 160 (6553600)
I0621 00:56:41.057530   388 layer_factory.hpp:78] Creating layer conv2_2
I0621 00:56:41.057538   388 net.cpp:69] Creating Layer conv2_2
I0621 00:56:41.057544   388 net.cpp:396] conv2_2 <- conv2_1
I0621 00:56:41.057552   388 net.cpp:358] conv2_2 -> conv2_2
I0621 00:56:41.057560   388 net.cpp:98] Setting up conv2_2
I0621 00:56:41.057952   388 net.cpp:105] Top shape: 2 128 160 160 (6553600)
I0621 00:56:41.057965   388 layer_factory.hpp:78] Creating layer relu2_2
I0621 00:56:41.057973   388 net.cpp:69] Creating Layer relu2_2
I0621 00:56:41.057992   388 net.cpp:396] relu2_2 <- conv2_2
I0621 00:56:41.058023   388 net.cpp:347] relu2_2 -> conv2_2 (in-place)
I0621 00:56:41.058032   388 net.cpp:98] Setting up relu2_2
I0621 00:56:41.058039   388 net.cpp:105] Top shape: 2 128 160 160 (6553600)
I0621 00:56:41.058046   388 layer_factory.hpp:78] Creating layer pool2
I0621 00:56:41.058053   388 net.cpp:69] Creating Layer pool2
I0621 00:56:41.058059   388 net.cpp:396] pool2 <- conv2_2
I0621 00:56:41.058066   388 net.cpp:358] pool2 -> pool2
I0621 00:56:41.058075   388 net.cpp:358] pool2 -> pool2_mask
I0621 00:56:41.058084   388 net.cpp:98] Setting up pool2
I0621 00:56:41.058090   388 net.cpp:105] Top shape: 2 128 80 80 (1638400)
I0621 00:56:41.058097   388 net.cpp:105] Top shape: 2 128 80 80 (1638400)
I0621 00:56:41.058104   388 layer_factory.hpp:78] Creating layer conv3_1
I0621 00:56:41.058114   388 net.cpp:69] Creating Layer conv3_1
I0621 00:56:41.058120   388 net.cpp:396] conv3_1 <- pool2
I0621 00:56:41.058128   388 net.cpp:358] conv3_1 -> conv3_1
I0621 00:56:41.058136   388 net.cpp:98] Setting up conv3_1
I0621 00:56:41.058739   388 net.cpp:105] Top shape: 2 256 80 80 (3276800)
I0621 00:56:41.058756   388 layer_factory.hpp:78] Creating layer relu3_1
I0621 00:56:41.058766   388 net.cpp:69] Creating Layer relu3_1
I0621 00:56:41.058773   388 net.cpp:396] relu3_1 <- conv3_1
I0621 00:56:41.058780   388 net.cpp:347] relu3_1 -> conv3_1 (in-place)
I0621 00:56:41.058787   388 net.cpp:98] Setting up relu3_1
I0621 00:56:41.058794   388 net.cpp:105] Top shape: 2 256 80 80 (3276800)
I0621 00:56:41.058799   388 layer_factory.hpp:78] Creating layer conv3_2
I0621 00:56:41.058806   388 net.cpp:69] Creating Layer conv3_2
I0621 00:56:41.058822   388 net.cpp:396] conv3_2 <- conv3_1
I0621 00:56:41.058831   388 net.cpp:358] conv3_2 -> conv3_2
I0621 00:56:41.058840   388 net.cpp:98] Setting up conv3_2
I0621 00:56:41.059949   388 net.cpp:105] Top shape: 2 256 80 80 (3276800)
I0621 00:56:41.059963   388 layer_factory.hpp:78] Creating layer relu3_2
I0621 00:56:41.059973   388 net.cpp:69] Creating Layer relu3_2
I0621 00:56:41.059979   388 net.cpp:396] relu3_2 <- conv3_2
I0621 00:56:41.059986   388 net.cpp:347] relu3_2 -> conv3_2 (in-place)
I0621 00:56:41.059993   388 net.cpp:98] Setting up relu3_2
I0621 00:56:41.059999   388 net.cpp:105] Top shape: 2 256 80 80 (3276800)
I0621 00:56:41.060005   388 layer_factory.hpp:78] Creating layer conv3_3
I0621 00:56:41.060015   388 net.cpp:69] Creating Layer conv3_3
I0621 00:56:41.060021   388 net.cpp:396] conv3_3 <- conv3_2
I0621 00:56:41.060029   388 net.cpp:358] conv3_3 -> conv3_3
I0621 00:56:41.060037   388 net.cpp:98] Setting up conv3_3
I0621 00:56:41.061136   388 net.cpp:105] Top shape: 2 256 80 80 (3276800)
I0621 00:56:41.061151   388 layer_factory.hpp:78] Creating layer relu3_3
I0621 00:56:41.061158   388 net.cpp:69] Creating Layer relu3_3
I0621 00:56:41.061166   388 net.cpp:396] relu3_3 <- conv3_3
I0621 00:56:41.061172   388 net.cpp:347] relu3_3 -> conv3_3 (in-place)
I0621 00:56:41.061182   388 net.cpp:98] Setting up relu3_3
I0621 00:56:41.061187   388 net.cpp:105] Top shape: 2 256 80 80 (3276800)
I0621 00:56:41.061193   388 layer_factory.hpp:78] Creating layer pool3
I0621 00:56:41.061200   388 net.cpp:69] Creating Layer pool3
I0621 00:56:41.061206   388 net.cpp:396] pool3 <- conv3_3
I0621 00:56:41.061214   388 net.cpp:358] pool3 -> pool3
I0621 00:56:41.061223   388 net.cpp:358] pool3 -> pool3_mask
I0621 00:56:41.061231   388 net.cpp:98] Setting up pool3
I0621 00:56:41.061239   388 net.cpp:105] Top shape: 2 256 40 40 (819200)
I0621 00:56:41.061244   388 net.cpp:105] Top shape: 2 256 40 40 (819200)
I0621 00:56:41.061250   388 layer_factory.hpp:78] Creating layer conv4_1
I0621 00:56:41.061257   388 net.cpp:69] Creating Layer conv4_1
I0621 00:56:41.061264   388 net.cpp:396] conv4_1 <- pool3
I0621 00:56:41.061271   388 net.cpp:358] conv4_1 -> conv4_1
I0621 00:56:41.061278   388 net.cpp:98] Setting up conv4_1
I0621 00:56:41.063155   388 net.cpp:105] Top shape: 2 512 40 40 (1638400)
I0621 00:56:41.063169   388 layer_factory.hpp:78] Creating layer relu4_1
I0621 00:56:41.063177   388 net.cpp:69] Creating Layer relu4_1
I0621 00:56:41.063185   388 net.cpp:396] relu4_1 <- conv4_1
I0621 00:56:41.063194   388 net.cpp:347] relu4_1 -> conv4_1 (in-place)
I0621 00:56:41.063202   388 net.cpp:98] Setting up relu4_1
I0621 00:56:41.063208   388 net.cpp:105] Top shape: 2 512 40 40 (1638400)
I0621 00:56:41.063215   388 layer_factory.hpp:78] Creating layer conv4_2
I0621 00:56:41.063222   388 net.cpp:69] Creating Layer conv4_2
I0621 00:56:41.063228   388 net.cpp:396] conv4_2 <- conv4_1
I0621 00:56:41.063235   388 net.cpp:358] conv4_2 -> conv4_2
I0621 00:56:41.063243   388 net.cpp:98] Setting up conv4_2
I0621 00:56:41.066313   388 net.cpp:105] Top shape: 2 512 40 40 (1638400)
I0621 00:56:41.066334   388 layer_factory.hpp:78] Creating layer relu4_2
I0621 00:56:41.066341   388 net.cpp:69] Creating Layer relu4_2
I0621 00:56:41.066349   388 net.cpp:396] relu4_2 <- conv4_2
I0621 00:56:41.066355   388 net.cpp:347] relu4_2 -> conv4_2 (in-place)
I0621 00:56:41.066362   388 net.cpp:98] Setting up relu4_2
I0621 00:56:41.066368   388 net.cpp:105] Top shape: 2 512 40 40 (1638400)
I0621 00:56:41.066375   388 layer_factory.hpp:78] Creating layer conv4_3
I0621 00:56:41.066383   388 net.cpp:69] Creating Layer conv4_3
I0621 00:56:41.066390   388 net.cpp:396] conv4_3 <- conv4_2
I0621 00:56:41.066397   388 net.cpp:358] conv4_3 -> conv4_3
I0621 00:56:41.066406   388 net.cpp:98] Setting up conv4_3
I0621 00:56:41.069876   388 net.cpp:105] Top shape: 2 512 40 40 (1638400)
I0621 00:56:41.069898   388 layer_factory.hpp:78] Creating layer relu4_3
I0621 00:56:41.069910   388 net.cpp:69] Creating Layer relu4_3
I0621 00:56:41.069917   388 net.cpp:396] relu4_3 <- conv4_3
I0621 00:56:41.069947   388 net.cpp:347] relu4_3 -> conv4_3 (in-place)
I0621 00:56:41.069955   388 net.cpp:98] Setting up relu4_3
I0621 00:56:41.069962   388 net.cpp:105] Top shape: 2 512 40 40 (1638400)
I0621 00:56:41.069967   388 layer_factory.hpp:78] Creating layer pool4
I0621 00:56:41.069975   388 net.cpp:69] Creating Layer pool4
I0621 00:56:41.069980   388 net.cpp:396] pool4 <- conv4_3
I0621 00:56:41.069990   388 net.cpp:358] pool4 -> pool4
I0621 00:56:41.069999   388 net.cpp:358] pool4 -> pool4_mask
I0621 00:56:41.070008   388 net.cpp:98] Setting up pool4
I0621 00:56:41.070016   388 net.cpp:105] Top shape: 2 512 20 20 (409600)
I0621 00:56:41.070022   388 net.cpp:105] Top shape: 2 512 20 20 (409600)
I0621 00:56:41.070030   388 layer_factory.hpp:78] Creating layer conv5_1
I0621 00:56:41.070039   388 net.cpp:69] Creating Layer conv5_1
I0621 00:56:41.070044   388 net.cpp:396] conv5_1 <- pool4
I0621 00:56:41.070052   388 net.cpp:358] conv5_1 -> conv5_1
I0621 00:56:41.070060   388 net.cpp:98] Setting up conv5_1
I0621 00:56:41.073153   388 net.cpp:105] Top shape: 2 512 20 20 (409600)
I0621 00:56:41.073173   388 layer_factory.hpp:78] Creating layer relu5_1
I0621 00:56:41.073181   388 net.cpp:69] Creating Layer relu5_1
I0621 00:56:41.073189   388 net.cpp:396] relu5_1 <- conv5_1
I0621 00:56:41.073195   388 net.cpp:347] relu5_1 -> conv5_1 (in-place)
I0621 00:56:41.073202   388 net.cpp:98] Setting up relu5_1
I0621 00:56:41.073209   388 net.cpp:105] Top shape: 2 512 20 20 (409600)
I0621 00:56:41.073215   388 layer_factory.hpp:78] Creating layer conv5_2
I0621 00:56:41.073223   388 net.cpp:69] Creating Layer conv5_2
I0621 00:56:41.073228   388 net.cpp:396] conv5_2 <- conv5_1
I0621 00:56:41.073236   388 net.cpp:358] conv5_2 -> conv5_2
I0621 00:56:41.073245   388 net.cpp:98] Setting up conv5_2
I0621 00:56:41.076750   388 net.cpp:105] Top shape: 2 512 20 20 (409600)
I0621 00:56:41.076784   388 layer_factory.hpp:78] Creating layer relu5_2
I0621 00:56:41.076794   388 net.cpp:69] Creating Layer relu5_2
I0621 00:56:41.076814   388 net.cpp:396] relu5_2 <- conv5_2
I0621 00:56:41.076843   388 net.cpp:347] relu5_2 -> conv5_2 (in-place)
I0621 00:56:41.076859   388 net.cpp:98] Setting up relu5_2
I0621 00:56:41.076871   388 net.cpp:105] Top shape: 2 512 20 20 (409600)
I0621 00:56:41.076884   388 layer_factory.hpp:78] Creating layer conv5_3
I0621 00:56:41.076900   388 net.cpp:69] Creating Layer conv5_3
I0621 00:56:41.076911   388 net.cpp:396] conv5_3 <- conv5_2
I0621 00:56:41.076926   388 net.cpp:358] conv5_3 -> conv5_3
I0621 00:56:41.076942   388 net.cpp:98] Setting up conv5_3
I0621 00:56:41.081079   388 net.cpp:105] Top shape: 2 512 20 20 (409600)
I0621 00:56:41.081121   388 layer_factory.hpp:78] Creating layer relu5_3
I0621 00:56:41.081142   388 net.cpp:69] Creating Layer relu5_3
I0621 00:56:41.081161   388 net.cpp:396] relu5_3 <- conv5_3
I0621 00:56:41.081183   388 net.cpp:347] relu5_3 -> conv5_3 (in-place)
I0621 00:56:41.081209   388 net.cpp:98] Setting up relu5_3
I0621 00:56:41.081230   388 net.cpp:105] Top shape: 2 512 20 20 (409600)
I0621 00:56:41.081249   388 layer_factory.hpp:78] Creating layer pool5
I0621 00:56:41.081286   388 net.cpp:69] Creating Layer pool5
I0621 00:56:41.081302   388 net.cpp:396] pool5 <- conv5_3
I0621 00:56:41.081326   388 net.cpp:358] pool5 -> pool5
I0621 00:56:41.081351   388 net.cpp:358] pool5 -> pool5_mask
I0621 00:56:41.081378   388 net.cpp:98] Setting up pool5
I0621 00:56:41.081403   388 net.cpp:105] Top shape: 2 512 10 10 (102400)
I0621 00:56:41.081420   388 net.cpp:105] Top shape: 2 512 10 10 (102400)
I0621 00:56:41.081441   388 layer_factory.hpp:78] Creating layer pool5_pool5_0_split
I0621 00:56:41.081460   388 net.cpp:69] Creating Layer pool5_pool5_0_split
I0621 00:56:41.081478   388 net.cpp:396] pool5_pool5_0_split <- pool5
I0621 00:56:41.081502   388 net.cpp:358] pool5_pool5_0_split -> pool5_pool5_0_split_0
I0621 00:56:41.081527   388 net.cpp:358] pool5_pool5_0_split -> pool5_pool5_0_split_1
I0621 00:56:41.081552   388 net.cpp:98] Setting up pool5_pool5_0_split
I0621 00:56:41.081604   388 net.cpp:105] Top shape: 2 512 10 10 (102400)
I0621 00:56:41.081624   388 net.cpp:105] Top shape: 2 512 10 10 (102400)
I0621 00:56:41.081640   388 layer_factory.hpp:78] Creating layer conv1_1b
I0621 00:56:41.081665   388 net.cpp:69] Creating Layer conv1_1b
I0621 00:56:41.081686   388 net.cpp:396] conv1_1b <- data2
I0621 00:56:41.081710   388 net.cpp:358] conv1_1b -> conv1_1b
I0621 00:56:41.081737   388 net.cpp:98] Setting up conv1_1b
I0621 00:56:41.082082   388 net.cpp:105] Top shape: 2 64 320 320 (13107200)
I0621 00:56:41.082108   388 net.cpp:438] Sharing parameters 'conv1_1p1' owned by layer 'conv1_1', param index 0
I0621 00:56:41.082129   388 net.cpp:438] Sharing parameters 'conv1_1p2' owned by layer 'conv1_1', param index 1
I0621 00:56:41.082145   388 layer_factory.hpp:78] Creating layer relu1_1b
I0621 00:56:41.082170   388 net.cpp:69] Creating Layer relu1_1b
I0621 00:56:41.082187   388 net.cpp:396] relu1_1b <- conv1_1b
I0621 00:56:41.082206   388 net.cpp:347] relu1_1b -> conv1_1b (in-place)
I0621 00:56:41.082228   388 net.cpp:98] Setting up relu1_1b
I0621 00:56:41.082248   388 net.cpp:105] Top shape: 2 64 320 320 (13107200)
I0621 00:56:41.082267   388 layer_factory.hpp:78] Creating layer conv1_2b
I0621 00:56:41.082289   388 net.cpp:69] Creating Layer conv1_2b
I0621 00:56:41.082309   388 net.cpp:396] conv1_2b <- conv1_1b
I0621 00:56:41.082332   388 net.cpp:358] conv1_2b -> conv1_2b
I0621 00:56:41.082367   388 net.cpp:98] Setting up conv1_2b
I0621 00:56:41.082900   388 net.cpp:105] Top shape: 2 64 320 320 (13107200)
I0621 00:56:41.082927   388 net.cpp:438] Sharing parameters 'conv1_2p1' owned by layer 'conv1_2', param index 0
I0621 00:56:41.082947   388 net.cpp:438] Sharing parameters 'conv1_2p2' owned by layer 'conv1_2', param index 1
I0621 00:56:41.082963   388 layer_factory.hpp:78] Creating layer relu1_2b
I0621 00:56:41.082989   388 net.cpp:69] Creating Layer relu1_2b
I0621 00:56:41.083009   388 net.cpp:396] relu1_2b <- conv1_2b
I0621 00:56:41.083034   388 net.cpp:347] relu1_2b -> conv1_2b (in-place)
I0621 00:56:41.083067   388 net.cpp:98] Setting up relu1_2b
I0621 00:56:41.083091   388 net.cpp:105] Top shape: 2 64 320 320 (13107200)
I0621 00:56:41.083111   388 layer_factory.hpp:78] Creating layer pool1b
I0621 00:56:41.083130   388 net.cpp:69] Creating Layer pool1b
I0621 00:56:41.083148   388 net.cpp:396] pool1b <- conv1_2b
I0621 00:56:41.083171   388 net.cpp:358] pool1b -> pool1b
I0621 00:56:41.083199   388 net.cpp:98] Setting up pool1b
I0621 00:56:41.083221   388 net.cpp:105] Top shape: 2 64 160 160 (3276800)
I0621 00:56:41.083242   388 layer_factory.hpp:78] Creating layer conv2_1b
I0621 00:56:41.083266   388 net.cpp:69] Creating Layer conv2_1b
I0621 00:56:41.083283   388 net.cpp:396] conv2_1b <- pool1b
I0621 00:56:41.083307   388 net.cpp:358] conv2_1b -> conv2_1b
I0621 00:56:41.083333   388 net.cpp:98] Setting up conv2_1b
I0621 00:56:41.083621   388 net.cpp:105] Top shape: 2 128 160 160 (6553600)
I0621 00:56:41.083652   388 net.cpp:438] Sharing parameters 'conv2_1p1' owned by layer 'conv2_1', param index 0
I0621 00:56:41.083676   388 net.cpp:438] Sharing parameters 'conv2_1p2' owned by layer 'conv2_1', param index 1
I0621 00:56:41.083700   388 layer_factory.hpp:78] Creating layer relu2_1b
I0621 00:56:41.083721   388 net.cpp:69] Creating Layer relu2_1b
I0621 00:56:41.083744   388 net.cpp:396] relu2_1b <- conv2_1b
I0621 00:56:41.083765   388 net.cpp:347] relu2_1b -> conv2_1b (in-place)
I0621 00:56:41.083788   388 net.cpp:98] Setting up relu2_1b
I0621 00:56:41.083806   388 net.cpp:105] Top shape: 2 128 160 160 (6553600)
I0621 00:56:41.083827   388 layer_factory.hpp:78] Creating layer conv2_2b
I0621 00:56:41.083848   388 net.cpp:69] Creating Layer conv2_2b
I0621 00:56:41.083868   388 net.cpp:396] conv2_2b <- conv2_1b
I0621 00:56:41.083892   388 net.cpp:358] conv2_2b -> conv2_2b
I0621 00:56:41.083920   388 net.cpp:98] Setting up conv2_2b
I0621 00:56:41.084327   388 net.cpp:105] Top shape: 2 128 160 160 (6553600)
I0621 00:56:41.084369   388 net.cpp:438] Sharing parameters 'conv2_2p1' owned by layer 'conv2_2', param index 0
I0621 00:56:41.084427   388 net.cpp:438] Sharing parameters 'conv2_2p2' owned by layer 'conv2_2', param index 1
I0621 00:56:41.084450   388 layer_factory.hpp:78] Creating layer relu2_2b
I0621 00:56:41.084475   388 net.cpp:69] Creating Layer relu2_2b
I0621 00:56:41.084489   388 net.cpp:396] relu2_2b <- conv2_2b
I0621 00:56:41.084513   388 net.cpp:347] relu2_2b -> conv2_2b (in-place)
I0621 00:56:41.084537   388 net.cpp:98] Setting up relu2_2b
I0621 00:56:41.084555   388 net.cpp:105] Top shape: 2 128 160 160 (6553600)
I0621 00:56:41.084574   388 layer_factory.hpp:78] Creating layer pool2b
I0621 00:56:41.084599   388 net.cpp:69] Creating Layer pool2b
I0621 00:56:41.084619   388 net.cpp:396] pool2b <- conv2_2b
I0621 00:56:41.084645   388 net.cpp:358] pool2b -> pool2b
I0621 00:56:41.084673   388 net.cpp:98] Setting up pool2b
I0621 00:56:41.084695   388 net.cpp:105] Top shape: 2 128 80 80 (1638400)
I0621 00:56:41.084717   388 layer_factory.hpp:78] Creating layer conv3_1b
I0621 00:56:41.084741   388 net.cpp:69] Creating Layer conv3_1b
I0621 00:56:41.084759   388 net.cpp:396] conv3_1b <- pool2b
I0621 00:56:41.084785   388 net.cpp:358] conv3_1b -> conv3_1b
I0621 00:56:41.084813   388 net.cpp:98] Setting up conv3_1b
I0621 00:56:41.085764   388 net.cpp:105] Top shape: 2 256 80 80 (3276800)
I0621 00:56:41.085790   388 net.cpp:438] Sharing parameters 'conv3_1p1' owned by layer 'conv3_1', param index 0
I0621 00:56:41.085811   388 net.cpp:438] Sharing parameters 'conv3_1p2' owned by layer 'conv3_1', param index 1
I0621 00:56:41.085834   388 layer_factory.hpp:78] Creating layer relu3_1b
I0621 00:56:41.085852   388 net.cpp:69] Creating Layer relu3_1b
I0621 00:56:41.085871   388 net.cpp:396] relu3_1b <- conv3_1b
I0621 00:56:41.085894   388 net.cpp:347] relu3_1b -> conv3_1b (in-place)
I0621 00:56:41.085913   388 net.cpp:98] Setting up relu3_1b
I0621 00:56:41.085929   388 net.cpp:105] Top shape: 2 256 80 80 (3276800)
I0621 00:56:41.085947   388 layer_factory.hpp:78] Creating layer conv3_2b
I0621 00:56:41.085966   388 net.cpp:69] Creating Layer conv3_2b
I0621 00:56:41.085983   388 net.cpp:396] conv3_2b <- conv3_1b
I0621 00:56:41.086004   388 net.cpp:358] conv3_2b -> conv3_2b
I0621 00:56:41.086024   388 net.cpp:98] Setting up conv3_2b
I0621 00:56:41.087013   388 net.cpp:105] Top shape: 2 256 80 80 (3276800)
I0621 00:56:41.087028   388 net.cpp:438] Sharing parameters 'conv3_2p1' owned by layer 'conv3_2', param index 0
I0621 00:56:41.087038   388 net.cpp:438] Sharing parameters 'conv3_2p2' owned by layer 'conv3_2', param index 1
I0621 00:56:41.087044   388 layer_factory.hpp:78] Creating layer relu3_2b
I0621 00:56:41.087051   388 net.cpp:69] Creating Layer relu3_2b
I0621 00:56:41.087059   388 net.cpp:396] relu3_2b <- conv3_2b
I0621 00:56:41.087074   388 net.cpp:347] relu3_2b -> conv3_2b (in-place)
I0621 00:56:41.087082   388 net.cpp:98] Setting up relu3_2b
I0621 00:56:41.087088   388 net.cpp:105] Top shape: 2 256 80 80 (3276800)
I0621 00:56:41.087095   388 layer_factory.hpp:78] Creating layer conv3_3b
I0621 00:56:41.087102   388 net.cpp:69] Creating Layer conv3_3b
I0621 00:56:41.087108   388 net.cpp:396] conv3_3b <- conv3_2b
I0621 00:56:41.087117   388 net.cpp:358] conv3_3b -> conv3_3b
I0621 00:56:41.087127   388 net.cpp:98] Setting up conv3_3b
I0621 00:56:41.087455   388 net.cpp:105] Top shape: 2 256 80 80 (3276800)
I0621 00:56:41.087468   388 net.cpp:438] Sharing parameters 'conv3_3p1' owned by layer 'conv3_3', param index 0
I0621 00:56:41.087476   388 net.cpp:438] Sharing parameters 'conv3_3p2' owned by layer 'conv3_3', param index 1
I0621 00:56:41.087483   388 layer_factory.hpp:78] Creating layer relu3_3b
I0621 00:56:41.087491   388 net.cpp:69] Creating Layer relu3_3b
I0621 00:56:41.087496   388 net.cpp:396] relu3_3b <- conv3_3b
I0621 00:56:41.087503   388 net.cpp:347] relu3_3b -> conv3_3b (in-place)
I0621 00:56:41.087510   388 net.cpp:98] Setting up relu3_3b
I0621 00:56:41.087517   388 net.cpp:105] Top shape: 2 256 80 80 (3276800)
I0621 00:56:41.087522   388 layer_factory.hpp:78] Creating layer pool3b
I0621 00:56:41.087539   388 net.cpp:69] Creating Layer pool3b
I0621 00:56:41.087548   388 net.cpp:396] pool3b <- conv3_3b
I0621 00:56:41.087554   388 net.cpp:358] pool3b -> pool3b
I0621 00:56:41.087563   388 net.cpp:98] Setting up pool3b
I0621 00:56:41.087569   388 net.cpp:105] Top shape: 2 256 40 40 (819200)
I0621 00:56:41.087576   388 layer_factory.hpp:78] Creating layer conv4_1b
I0621 00:56:41.087584   388 net.cpp:69] Creating Layer conv4_1b
I0621 00:56:41.087589   388 net.cpp:396] conv4_1b <- pool3b
I0621 00:56:41.087596   388 net.cpp:358] conv4_1b -> conv4_1b
I0621 00:56:41.087604   388 net.cpp:98] Setting up conv4_1b
I0621 00:56:41.089016   388 net.cpp:105] Top shape: 2 512 40 40 (1638400)
I0621 00:56:41.089030   388 net.cpp:438] Sharing parameters 'conv4_1p1' owned by layer 'conv4_1', param index 0
I0621 00:56:41.089038   388 net.cpp:438] Sharing parameters 'conv4_1p2' owned by layer 'conv4_1', param index 1
I0621 00:56:41.089046   388 layer_factory.hpp:78] Creating layer relu4_1b
I0621 00:56:41.089052   388 net.cpp:69] Creating Layer relu4_1b
I0621 00:56:41.089058   388 net.cpp:396] relu4_1b <- conv4_1b
I0621 00:56:41.089066   388 net.cpp:347] relu4_1b -> conv4_1b (in-place)
I0621 00:56:41.089072   388 net.cpp:98] Setting up relu4_1b
I0621 00:56:41.089078   388 net.cpp:105] Top shape: 2 512 40 40 (1638400)
I0621 00:56:41.089084   388 layer_factory.hpp:78] Creating layer conv4_2b
I0621 00:56:41.089092   388 net.cpp:69] Creating Layer conv4_2b
I0621 00:56:41.089097   388 net.cpp:396] conv4_2b <- conv4_1b
I0621 00:56:41.089105   388 net.cpp:358] conv4_2b -> conv4_2b
I0621 00:56:41.089114   388 net.cpp:98] Setting up conv4_2b
I0621 00:56:41.091714   388 net.cpp:105] Top shape: 2 512 40 40 (1638400)
I0621 00:56:41.091730   388 net.cpp:438] Sharing parameters 'conv4_2p1' owned by layer 'conv4_2', param index 0
I0621 00:56:41.091738   388 net.cpp:438] Sharing parameters 'conv4_2p2' owned by layer 'conv4_2', param index 1
I0621 00:56:41.091745   388 layer_factory.hpp:78] Creating layer relu4_2b
I0621 00:56:41.091753   388 net.cpp:69] Creating Layer relu4_2b
I0621 00:56:41.091759   388 net.cpp:396] relu4_2b <- conv4_2b
I0621 00:56:41.091766   388 net.cpp:347] relu4_2b -> conv4_2b (in-place)
I0621 00:56:41.091774   388 net.cpp:98] Setting up relu4_2b
I0621 00:56:41.091780   388 net.cpp:105] Top shape: 2 512 40 40 (1638400)
I0621 00:56:41.091785   388 layer_factory.hpp:78] Creating layer conv4_3b
I0621 00:56:41.091794   388 net.cpp:69] Creating Layer conv4_3b
I0621 00:56:41.091799   388 net.cpp:396] conv4_3b <- conv4_2b
I0621 00:56:41.091807   388 net.cpp:358] conv4_3b -> conv4_3b
I0621 00:56:41.091816   388 net.cpp:98] Setting up conv4_3b
I0621 00:56:41.093161   388 net.cpp:105] Top shape: 2 512 40 40 (1638400)
I0621 00:56:41.093174   388 net.cpp:438] Sharing parameters 'conv4_3p1' owned by layer 'conv4_3', param index 0
I0621 00:56:41.093183   388 net.cpp:438] Sharing parameters 'conv4_3p2' owned by layer 'conv4_3', param index 1
I0621 00:56:41.093190   388 layer_factory.hpp:78] Creating layer relu4_3b
I0621 00:56:41.093197   388 net.cpp:69] Creating Layer relu4_3b
I0621 00:56:41.093204   388 net.cpp:396] relu4_3b <- conv4_3b
I0621 00:56:41.093210   388 net.cpp:347] relu4_3b -> conv4_3b (in-place)
I0621 00:56:41.093217   388 net.cpp:98] Setting up relu4_3b
I0621 00:56:41.093224   388 net.cpp:105] Top shape: 2 512 40 40 (1638400)
I0621 00:56:41.093230   388 layer_factory.hpp:78] Creating layer pool4b
I0621 00:56:41.093236   388 net.cpp:69] Creating Layer pool4b
I0621 00:56:41.093241   388 net.cpp:396] pool4b <- conv4_3b
I0621 00:56:41.093250   388 net.cpp:358] pool4b -> pool4b
I0621 00:56:41.093260   388 net.cpp:98] Setting up pool4b
I0621 00:56:41.093266   388 net.cpp:105] Top shape: 2 512 20 20 (409600)
I0621 00:56:41.093273   388 layer_factory.hpp:78] Creating layer conv5_1b
I0621 00:56:41.093281   388 net.cpp:69] Creating Layer conv5_1b
I0621 00:56:41.093286   388 net.cpp:396] conv5_1b <- pool4b
I0621 00:56:41.093294   388 net.cpp:358] conv5_1b -> conv5_1b
I0621 00:56:41.093303   388 net.cpp:98] Setting up conv5_1b
I0621 00:56:41.094614   388 net.cpp:105] Top shape: 2 512 20 20 (409600)
I0621 00:56:41.094627   388 net.cpp:438] Sharing parameters 'conv5_1p1' owned by layer 'conv5_1', param index 0
I0621 00:56:41.094635   388 net.cpp:438] Sharing parameters 'conv5_1p2' owned by layer 'conv5_1', param index 1
I0621 00:56:41.094642   388 layer_factory.hpp:78] Creating layer relu5_1b
I0621 00:56:41.094650   388 net.cpp:69] Creating Layer relu5_1b
I0621 00:56:41.094655   388 net.cpp:396] relu5_1b <- conv5_1b
I0621 00:56:41.094662   388 net.cpp:347] relu5_1b -> conv5_1b (in-place)
I0621 00:56:41.094669   388 net.cpp:98] Setting up relu5_1b
I0621 00:56:41.094676   388 net.cpp:105] Top shape: 2 512 20 20 (409600)
I0621 00:56:41.094681   388 layer_factory.hpp:78] Creating layer conv5_2b
I0621 00:56:41.094688   388 net.cpp:69] Creating Layer conv5_2b
I0621 00:56:41.094694   388 net.cpp:396] conv5_2b <- conv5_1b
I0621 00:56:41.094702   388 net.cpp:358] conv5_2b -> conv5_2b
I0621 00:56:41.094710   388 net.cpp:98] Setting up conv5_2b
I0621 00:56:41.096016   388 net.cpp:105] Top shape: 2 512 20 20 (409600)
I0621 00:56:41.096030   388 net.cpp:438] Sharing parameters 'conv5_2p1' owned by layer 'conv5_2', param index 0
I0621 00:56:41.096038   388 net.cpp:438] Sharing parameters 'conv5_2p2' owned by layer 'conv5_2', param index 1
I0621 00:56:41.096046   388 layer_factory.hpp:78] Creating layer relu5_2b
I0621 00:56:41.096053   388 net.cpp:69] Creating Layer relu5_2b
I0621 00:56:41.096060   388 net.cpp:396] relu5_2b <- conv5_2b
I0621 00:56:41.096066   388 net.cpp:347] relu5_2b -> conv5_2b (in-place)
I0621 00:56:41.096073   388 net.cpp:98] Setting up relu5_2b
I0621 00:56:41.096079   388 net.cpp:105] Top shape: 2 512 20 20 (409600)
I0621 00:56:41.096086   388 layer_factory.hpp:78] Creating layer conv5_3b
I0621 00:56:41.096092   388 net.cpp:69] Creating Layer conv5_3b
I0621 00:56:41.096098   388 net.cpp:396] conv5_3b <- conv5_2b
I0621 00:56:41.096107   388 net.cpp:358] conv5_3b -> conv5_3b
I0621 00:56:41.096117   388 net.cpp:98] Setting up conv5_3b
I0621 00:56:41.097415   388 net.cpp:105] Top shape: 2 512 20 20 (409600)
I0621 00:56:41.097429   388 net.cpp:438] Sharing parameters 'conv5_3p1' owned by layer 'conv5_3', param index 0
I0621 00:56:41.097437   388 net.cpp:438] Sharing parameters 'conv5_3p2' owned by layer 'conv5_3', param index 1
I0621 00:56:41.097445   388 layer_factory.hpp:78] Creating layer relu5_3b
I0621 00:56:41.097451   388 net.cpp:69] Creating Layer relu5_3b
I0621 00:56:41.097457   388 net.cpp:396] relu5_3b <- conv5_3b
I0621 00:56:41.097465   388 net.cpp:347] relu5_3b -> conv5_3b (in-place)
I0621 00:56:41.097471   388 net.cpp:98] Setting up relu5_3b
I0621 00:56:41.097476   388 net.cpp:105] Top shape: 2 512 20 20 (409600)
I0621 00:56:41.097482   388 layer_factory.hpp:78] Creating layer pool5b
I0621 00:56:41.097496   388 net.cpp:69] Creating Layer pool5b
I0621 00:56:41.097501   388 net.cpp:396] pool5b <- conv5_3b
I0621 00:56:41.097509   388 net.cpp:358] pool5b -> pool5b
I0621 00:56:41.097517   388 net.cpp:98] Setting up pool5b
I0621 00:56:41.097524   388 net.cpp:105] Top shape: 2 512 10 10 (102400)
I0621 00:56:41.097532   388 layer_factory.hpp:78] Creating layer fc6
I0621 00:56:41.097538   388 net.cpp:69] Creating Layer fc6
I0621 00:56:41.097545   388 net.cpp:396] fc6 <- pool5_pool5_0_split_0
I0621 00:56:41.097553   388 net.cpp:358] fc6 -> fc6
I0621 00:56:41.097560   388 net.cpp:98] Setting up fc6
I0621 00:56:41.234817   388 net.cpp:105] Top shape: 2 4096 4 4 (131072)
I0621 00:56:41.234869   388 layer_factory.hpp:78] Creating layer relu6
I0621 00:56:41.234881   388 net.cpp:69] Creating Layer relu6
I0621 00:56:41.234890   388 net.cpp:396] relu6 <- fc6
I0621 00:56:41.234900   388 net.cpp:347] relu6 -> fc6 (in-place)
I0621 00:56:41.234910   388 net.cpp:358] relu6 -> relu6-mask
I0621 00:56:41.234921   388 net.cpp:98] Setting up relu6
I0621 00:56:41.234928   388 net.cpp:105] Top shape: 2 4096 4 4 (131072)
I0621 00:56:41.234935   388 net.cpp:105] Top shape: 2 4096 4 4 (131072)
I0621 00:56:41.234941   388 layer_factory.hpp:78] Creating layer fc7
I0621 00:56:41.234951   388 net.cpp:69] Creating Layer fc7
I0621 00:56:41.234982   388 net.cpp:396] fc7 <- fc6
I0621 00:56:41.234990   388 net.cpp:358] fc7 -> fc7
I0621 00:56:41.234999   388 net.cpp:98] Setting up fc7
I0621 00:56:41.257612   388 net.cpp:105] Top shape: 2 4096 4 4 (131072)
I0621 00:56:41.257659   388 layer_factory.hpp:78] Creating layer relu7
I0621 00:56:41.257670   388 net.cpp:69] Creating Layer relu7
I0621 00:56:41.257679   388 net.cpp:396] relu7 <- fc7
I0621 00:56:41.257688   388 net.cpp:347] relu7 -> fc7 (in-place)
I0621 00:56:41.257711   388 net.cpp:358] relu7 -> relu7-mask
I0621 00:56:41.257722   388 net.cpp:98] Setting up relu7
I0621 00:56:41.257730   388 net.cpp:105] Top shape: 2 4096 4 4 (131072)
I0621 00:56:41.257737   388 net.cpp:105] Top shape: 2 4096 4 4 (131072)
I0621 00:56:41.257745   388 layer_factory.hpp:78] Creating layer cls-score-voc
I0621 00:56:41.257755   388 net.cpp:69] Creating Layer cls-score-voc
I0621 00:56:41.257761   388 net.cpp:396] cls-score-voc <- fc7
I0621 00:56:41.257771   388 net.cpp:358] cls-score-voc -> cls-score
I0621 00:56:41.257781   388 net.cpp:98] Setting up cls-score-voc
I0621 00:56:41.260098   388 net.cpp:105] Top shape: 2 20 4 4 (640)
I0621 00:56:41.260113   388 layer_factory.hpp:78] Creating layer avg-pool
I0621 00:56:41.260123   388 net.cpp:69] Creating Layer avg-pool
I0621 00:56:41.260128   388 net.cpp:396] avg-pool <- cls-score
I0621 00:56:41.260138   388 net.cpp:358] avg-pool -> cls-score-pooled
I0621 00:56:41.260148   388 net.cpp:358] avg-pool -> score-pool-mask
I0621 00:56:41.260156   388 net.cpp:98] Setting up avg-pool
I0621 00:56:41.260164   388 net.cpp:105] Top shape: 2 20 1 1 (40)
I0621 00:56:41.260170   388 net.cpp:105] Top shape: 2 20 1 1 (40)
I0621 00:56:41.260176   388 layer_factory.hpp:78] Creating layer cls-score-sigmoid
I0621 00:56:41.260185   388 net.cpp:69] Creating Layer cls-score-sigmoid
I0621 00:56:41.260190   388 net.cpp:396] cls-score-sigmoid <- cls-score-pooled
I0621 00:56:41.260198   388 net.cpp:358] cls-score-sigmoid -> cls-score-sigmoid
I0621 00:56:41.260206   388 net.cpp:98] Setting up cls-score-sigmoid
I0621 00:56:41.260213   388 net.cpp:105] Top shape: 2 20 1 1 (40)
I0621 00:56:41.260220   388 layer_factory.hpp:78] Creating layer cls-score-mask
I0621 00:56:41.260227   388 net.cpp:69] Creating Layer cls-score-mask
I0621 00:56:41.260234   388 net.cpp:396] cls-score-mask <- cls-score-sigmoid
I0621 00:56:41.260241   388 net.cpp:396] cls-score-mask <- cls-label
I0621 00:56:41.260248   388 net.cpp:358] cls-score-mask -> cls-score-masked
I0621 00:56:41.260257   388 net.cpp:98] Setting up cls-score-mask
I0621 00:56:41.260264   388 net.cpp:105] Top shape: 2 20 1 1 (40)
I0621 00:56:41.260270   388 layer_factory.hpp:78] Creating layer avg-unpool
I0621 00:56:41.260278   388 net.cpp:69] Creating Layer avg-unpool
I0621 00:56:41.260285   388 net.cpp:396] avg-unpool <- cls-score-masked
I0621 00:56:41.260291   388 net.cpp:396] avg-unpool <- score-pool-mask
I0621 00:56:41.260299   388 net.cpp:358] avg-unpool -> cls-score-unpooled
I0621 00:56:41.260308   388 net.cpp:98] Setting up avg-unpool
I0621 00:56:41.260315   388 net.cpp:105] Top shape: 2 20 4 4 (640)
I0621 00:56:41.260321   388 layer_factory.hpp:78] Creating layer cls-score-voc-bp
I0621 00:56:41.260334   388 net.cpp:69] Creating Layer cls-score-voc-bp
I0621 00:56:41.260340   388 net.cpp:396] cls-score-voc-bp <- cls-score-unpooled
I0621 00:56:41.260349   388 net.cpp:358] cls-score-voc-bp -> fc7-bp
I0621 00:56:41.260357   388 net.cpp:98] Setting up cls-score-voc-bp
I0621 00:56:41.262578   388 net.cpp:105] Top shape: 2 4096 4 4 (131072)
I0621 00:56:41.262591   388 layer_factory.hpp:78] Creating layer relu7-mask
I0621 00:56:41.262600   388 net.cpp:69] Creating Layer relu7-mask
I0621 00:56:41.262606   388 net.cpp:396] relu7-mask <- fc7-bp
I0621 00:56:41.262614   388 net.cpp:396] relu7-mask <- relu7-mask
I0621 00:56:41.262624   388 net.cpp:347] relu7-mask -> fc7-bp (in-place)
I0621 00:56:41.262631   388 net.cpp:98] Setting up relu7-mask
I0621 00:56:41.262639   388 net.cpp:105] Top shape: 2 4096 4 4 (131072)
I0621 00:56:41.262665   388 layer_factory.hpp:78] Creating layer fc7-bp
I0621 00:56:41.262675   388 net.cpp:69] Creating Layer fc7-bp
I0621 00:56:41.262681   388 net.cpp:396] fc7-bp <- fc7-bp
I0621 00:56:41.262689   388 net.cpp:358] fc7-bp -> fc6-bp
I0621 00:56:41.262699   388 net.cpp:98] Setting up fc7-bp
I0621 00:56:41.285351   388 net.cpp:105] Top shape: 2 4096 4 4 (131072)
I0621 00:56:41.285399   388 layer_factory.hpp:78] Creating layer relu6-mask
I0621 00:56:41.285411   388 net.cpp:69] Creating Layer relu6-mask
I0621 00:56:41.285420   388 net.cpp:396] relu6-mask <- fc6-bp
I0621 00:56:41.285430   388 net.cpp:396] relu6-mask <- relu6-mask
I0621 00:56:41.285439   388 net.cpp:347] relu6-mask -> fc6-bp (in-place)
I0621 00:56:41.285449   388 net.cpp:98] Setting up relu6-mask
I0621 00:56:41.285456   388 net.cpp:105] Top shape: 2 4096 4 4 (131072)
I0621 00:56:41.285464   388 layer_factory.hpp:78] Creating layer fc6-bp
I0621 00:56:41.285471   388 net.cpp:69] Creating Layer fc6-bp
I0621 00:56:41.285477   388 net.cpp:396] fc6-bp <- fc6-bp
I0621 00:56:41.285485   388 net.cpp:358] fc6-bp -> pool5-bp
I0621 00:56:41.285495   388 net.cpp:98] Setting up fc6-bp
I0621 00:56:42.010483   388 net.cpp:105] Top shape: 2 512 10 10 (102400)
I0621 00:56:42.010535   388 layer_factory.hpp:78] Creating layer pool5-bn
I0621 00:56:42.010550   388 net.cpp:69] Creating Layer pool5-bn
I0621 00:56:42.010562   388 net.cpp:396] pool5-bn <- pool5_pool5_0_split_1
I0621 00:56:42.010574   388 net.cpp:358] pool5-bn -> pool5-bn
I0621 00:56:42.010586   388 net.cpp:98] Setting up pool5-bn
I0621 00:56:42.010601   388 net.cpp:105] Top shape: 2 512 10 10 (102400)
I0621 00:56:42.010622   388 layer_factory.hpp:78] Creating layer pool5b-bn
I0621 00:56:42.010632   388 net.cpp:69] Creating Layer pool5b-bn
I0621 00:56:42.010638   388 net.cpp:396] pool5b-bn <- pool5b
I0621 00:56:42.010648   388 net.cpp:358] pool5b-bn -> pool5b-bn
I0621 00:56:42.010656   388 net.cpp:98] Setting up pool5b-bn
I0621 00:56:42.010673   388 net.cpp:105] Top shape: 2 512 10 10 (102400)
I0621 00:56:42.010684   388 layer_factory.hpp:78] Creating layer pool5-bp-bn
I0621 00:56:42.010691   388 net.cpp:69] Creating Layer pool5-bp-bn
I0621 00:56:42.010699   388 net.cpp:396] pool5-bp-bn <- pool5-bp
I0621 00:56:42.010706   388 net.cpp:358] pool5-bp-bn -> pool5-bp-bn
I0621 00:56:42.010722   388 net.cpp:98] Setting up pool5-bp-bn
I0621 00:56:42.010740   388 net.cpp:105] Top shape: 2 512 10 10 (102400)
I0621 00:56:42.010748   388 layer_factory.hpp:78] Creating layer pool5-concat
I0621 00:56:42.010756   388 net.cpp:69] Creating Layer pool5-concat
I0621 00:56:42.010762   388 net.cpp:396] pool5-concat <- pool5-bn
I0621 00:56:42.010771   388 net.cpp:396] pool5-concat <- pool5b-bn
I0621 00:56:42.010777   388 net.cpp:396] pool5-concat <- pool5-bp-bn
I0621 00:56:42.010785   388 net.cpp:358] pool5-concat -> pool5-concat
I0621 00:56:42.010794   388 net.cpp:98] Setting up pool5-concat
I0621 00:56:42.010802   388 net.cpp:105] Top shape: 2 1536 10 10 (307200)
I0621 00:56:42.010818   388 layer_factory.hpp:78] Creating layer fc6-seg
I0621 00:56:42.010829   388 net.cpp:69] Creating Layer fc6-seg
I0621 00:56:42.010838   388 net.cpp:396] fc6-seg <- pool5-concat
I0621 00:56:42.010846   388 net.cpp:358] fc6-seg -> fc6-seg
I0621 00:56:42.010856   388 net.cpp:98] Setting up fc6-seg
I0621 00:56:49.030704   388 net.cpp:105] Top shape: 2 2048 4 4 (65536)
I0621 00:56:49.030768   388 layer_factory.hpp:78] Creating layer bnfc6-seg
I0621 00:56:49.030793   388 net.cpp:69] Creating Layer bnfc6-seg
I0621 00:56:49.030815   388 net.cpp:396] bnfc6-seg <- fc6-seg
I0621 00:56:49.030829   388 net.cpp:347] bnfc6-seg -> fc6-seg (in-place)
I0621 00:56:49.030841   388 net.cpp:98] Setting up bnfc6-seg
I0621 00:56:49.030869   388 net.cpp:105] Top shape: 2 2048 4 4 (65536)
I0621 00:56:49.030879   388 layer_factory.hpp:78] Creating layer relu6-seg
I0621 00:56:49.030890   388 net.cpp:69] Creating Layer relu6-seg
I0621 00:56:49.030897   388 net.cpp:396] relu6-seg <- fc6-seg
I0621 00:56:49.030906   388 net.cpp:347] relu6-seg -> fc6-seg (in-place)
I0621 00:56:49.030948   388 net.cpp:98] Setting up relu6-seg
I0621 00:56:49.030957   388 net.cpp:105] Top shape: 2 2048 4 4 (65536)
I0621 00:56:49.030964   388 layer_factory.hpp:78] Creating layer fc7-seg
I0621 00:56:49.030982   388 net.cpp:69] Creating Layer fc7-seg
I0621 00:56:49.030988   388 net.cpp:396] fc7-seg <- fc6-seg
I0621 00:56:49.030999   388 net.cpp:358] fc7-seg -> fc7-seg
I0621 00:56:49.031014   388 net.cpp:98] Setting up fc7-seg
I0621 00:56:49.206914   388 net.cpp:105] Top shape: 2 2048 4 4 (65536)
I0621 00:56:49.206959   388 layer_factory.hpp:78] Creating layer bnfc7-seg
I0621 00:56:49.206976   388 net.cpp:69] Creating Layer bnfc7-seg
I0621 00:56:49.206986   388 net.cpp:396] bnfc7-seg <- fc7-seg
I0621 00:56:49.206997   388 net.cpp:347] bnfc7-seg -> fc7-seg (in-place)
I0621 00:56:49.207010   388 net.cpp:98] Setting up bnfc7-seg
I0621 00:56:49.207039   388 net.cpp:105] Top shape: 2 2048 4 4 (65536)
I0621 00:56:49.207051   388 layer_factory.hpp:78] Creating layer relu7-seg
I0621 00:56:49.207072   388 net.cpp:69] Creating Layer relu7-seg
I0621 00:56:49.207079   388 net.cpp:396] relu7-seg <- fc7-seg
I0621 00:56:49.207090   388 net.cpp:347] relu7-seg -> fc7-seg (in-place)
I0621 00:56:49.207099   388 net.cpp:98] Setting up relu7-seg
I0621 00:56:49.207106   388 net.cpp:105] Top shape: 2 2048 4 4 (65536)
I0621 00:56:49.207113   388 layer_factory.hpp:78] Creating layer fc6-deconv
I0621 00:56:49.207123   388 net.cpp:69] Creating Layer fc6-deconv
I0621 00:56:49.207129   388 net.cpp:396] fc6-deconv <- fc7-seg
I0621 00:56:49.207139   388 net.cpp:358] fc6-deconv -> fc6-deconv
I0621 00:56:49.207151   388 net.cpp:98] Setting up fc6-deconv
I0621 00:56:51.736253   388 net.cpp:105] Top shape: 2 512 10 10 (102400)
I0621 00:56:51.736316   388 layer_factory.hpp:78] Creating layer fc6-deconv-bn
I0621 00:56:51.736340   388 net.cpp:69] Creating Layer fc6-deconv-bn
I0621 00:56:51.736358   388 net.cpp:396] fc6-deconv-bn <- fc6-deconv
I0621 00:56:51.736371   388 net.cpp:347] fc6-deconv-bn -> fc6-deconv (in-place)
I0621 00:56:51.736382   388 net.cpp:98] Setting up fc6-deconv-bn
I0621 00:56:51.736397   388 net.cpp:105] Top shape: 2 512 10 10 (102400)
I0621 00:56:51.736405   388 layer_factory.hpp:78] Creating layer fc6-deconv-relu
I0621 00:56:51.736418   388 net.cpp:69] Creating Layer fc6-deconv-relu
I0621 00:56:51.736423   388 net.cpp:396] fc6-deconv-relu <- fc6-deconv
I0621 00:56:51.736433   388 net.cpp:347] fc6-deconv-relu -> fc6-deconv (in-place)
I0621 00:56:51.736440   388 net.cpp:98] Setting up fc6-deconv-relu
I0621 00:56:51.736448   388 net.cpp:105] Top shape: 2 512 10 10 (102400)
I0621 00:56:51.736454   388 layer_factory.hpp:78] Creating layer unpool5
I0621 00:56:51.736464   388 net.cpp:69] Creating Layer unpool5
I0621 00:56:51.736469   388 net.cpp:396] unpool5 <- fc6-deconv
I0621 00:56:51.736488   388 net.cpp:396] unpool5 <- pool5_mask
I0621 00:56:51.736501   388 net.cpp:358] unpool5 -> unpool5
I0621 00:56:51.736511   388 net.cpp:98] Setting up unpool5
I0621 00:56:51.736518   388 net.cpp:105] Top shape: 2 512 20 20 (409600)
I0621 00:56:51.736524   388 layer_factory.hpp:78] Creating layer deconv5_1
I0621 00:56:51.736536   388 net.cpp:69] Creating Layer deconv5_1
I0621 00:56:51.736541   388 net.cpp:396] deconv5_1 <- unpool5
I0621 00:56:51.736552   388 net.cpp:358] deconv5_1 -> deconv5_1
I0621 00:56:51.736559   388 net.cpp:98] Setting up deconv5_1
I0621 00:56:51.809643   388 net.cpp:105] Top shape: 2 512 20 20 (409600)
I0621 00:56:51.809685   388 layer_factory.hpp:78] Creating layer debn5_1
I0621 00:56:51.809700   388 net.cpp:69] Creating Layer debn5_1
I0621 00:56:51.809707   388 net.cpp:396] debn5_1 <- deconv5_1
I0621 00:56:51.809718   388 net.cpp:347] debn5_1 -> deconv5_1 (in-place)
I0621 00:56:51.809728   388 net.cpp:98] Setting up debn5_1
I0621 00:56:51.809746   388 net.cpp:105] Top shape: 2 512 20 20 (409600)
I0621 00:56:51.809753   388 layer_factory.hpp:78] Creating layer derelu5_1
I0621 00:56:51.809763   388 net.cpp:69] Creating Layer derelu5_1
I0621 00:56:51.809769   388 net.cpp:396] derelu5_1 <- deconv5_1
I0621 00:56:51.809779   388 net.cpp:347] derelu5_1 -> deconv5_1 (in-place)
I0621 00:56:51.809810   388 net.cpp:98] Setting up derelu5_1
I0621 00:56:51.809818   388 net.cpp:105] Top shape: 2 512 20 20 (409600)
I0621 00:56:51.809825   388 layer_factory.hpp:78] Creating layer deconv5_2
I0621 00:56:51.809836   388 net.cpp:69] Creating Layer deconv5_2
I0621 00:56:51.809842   388 net.cpp:396] deconv5_2 <- deconv5_1
I0621 00:56:51.809852   388 net.cpp:358] deconv5_2 -> deconv5_2
I0621 00:56:51.809861   388 net.cpp:98] Setting up deconv5_2
I0621 00:56:51.903750   388 net.cpp:105] Top shape: 2 512 20 20 (409600)
I0621 00:56:51.903798   388 layer_factory.hpp:78] Creating layer debn5_2
I0621 00:56:51.903815   388 net.cpp:69] Creating Layer debn5_2
I0621 00:56:51.903823   388 net.cpp:396] debn5_2 <- deconv5_2
I0621 00:56:51.903833   388 net.cpp:347] debn5_2 -> deconv5_2 (in-place)
I0621 00:56:51.903843   388 net.cpp:98] Setting up debn5_2
I0621 00:56:51.903859   388 net.cpp:105] Top shape: 2 512 20 20 (409600)
I0621 00:56:51.903869   388 layer_factory.hpp:78] Creating layer derelu5_2
I0621 00:56:51.903879   388 net.cpp:69] Creating Layer derelu5_2
I0621 00:56:51.903885   388 net.cpp:396] derelu5_2 <- deconv5_2
I0621 00:56:51.903892   388 net.cpp:347] derelu5_2 -> deconv5_2 (in-place)
I0621 00:56:51.903900   388 net.cpp:98] Setting up derelu5_2
I0621 00:56:51.903908   388 net.cpp:105] Top shape: 2 512 20 20 (409600)
I0621 00:56:51.903916   388 layer_factory.hpp:78] Creating layer deconv5_3
I0621 00:56:51.903926   388 net.cpp:69] Creating Layer deconv5_3
I0621 00:56:51.903933   388 net.cpp:396] deconv5_3 <- deconv5_2
I0621 00:56:51.903941   388 net.cpp:358] deconv5_3 -> deconv5_3
I0621 00:56:51.903951   388 net.cpp:98] Setting up deconv5_3
I0621 00:56:51.994698   388 net.cpp:105] Top shape: 2 512 20 20 (409600)
I0621 00:56:51.994747   388 layer_factory.hpp:78] Creating layer debn5_3
I0621 00:56:51.994767   388 net.cpp:69] Creating Layer debn5_3
I0621 00:56:51.994786   388 net.cpp:396] debn5_3 <- deconv5_3
I0621 00:56:51.994797   388 net.cpp:347] debn5_3 -> deconv5_3 (in-place)
I0621 00:56:51.994808   388 net.cpp:98] Setting up debn5_3
I0621 00:56:51.994828   388 net.cpp:105] Top shape: 2 512 20 20 (409600)
I0621 00:56:51.994837   388 layer_factory.hpp:78] Creating layer derelu5_3
I0621 00:56:51.994850   388 net.cpp:69] Creating Layer derelu5_3
I0621 00:56:51.994858   388 net.cpp:396] derelu5_3 <- deconv5_3
I0621 00:56:51.994865   388 net.cpp:347] derelu5_3 -> deconv5_3 (in-place)
I0621 00:56:51.994874   388 net.cpp:98] Setting up derelu5_3
I0621 00:56:51.994881   388 net.cpp:105] Top shape: 2 512 20 20 (409600)
I0621 00:56:51.994889   388 layer_factory.hpp:78] Creating layer unpool4
I0621 00:56:51.994901   388 net.cpp:69] Creating Layer unpool4
I0621 00:56:51.994909   388 net.cpp:396] unpool4 <- deconv5_3
I0621 00:56:51.994918   388 net.cpp:396] unpool4 <- pool4_mask
I0621 00:56:51.994932   388 net.cpp:358] unpool4 -> unpool4
I0621 00:56:51.994942   388 net.cpp:98] Setting up unpool4
I0621 00:56:51.994951   388 net.cpp:105] Top shape: 2 512 40 40 (1638400)
I0621 00:56:51.994957   388 layer_factory.hpp:78] Creating layer deconv4_1
I0621 00:56:51.994967   388 net.cpp:69] Creating Layer deconv4_1
I0621 00:56:51.994974   388 net.cpp:396] deconv4_1 <- unpool4
I0621 00:56:51.994985   388 net.cpp:358] deconv4_1 -> deconv4_1
I0621 00:56:51.994995   388 net.cpp:98] Setting up deconv4_1
I0621 00:56:52.092298   388 net.cpp:105] Top shape: 2 512 40 40 (1638400)
I0621 00:56:52.092342   388 layer_factory.hpp:78] Creating layer debn4_1
I0621 00:56:52.092356   388 net.cpp:69] Creating Layer debn4_1
I0621 00:56:52.092365   388 net.cpp:396] debn4_1 <- deconv4_1
I0621 00:56:52.092375   388 net.cpp:347] debn4_1 -> deconv4_1 (in-place)
I0621 00:56:52.092386   388 net.cpp:98] Setting up debn4_1
I0621 00:56:52.092408   388 net.cpp:105] Top shape: 2 512 40 40 (1638400)
I0621 00:56:52.092419   388 layer_factory.hpp:78] Creating layer derelu4_1
I0621 00:56:52.092427   388 net.cpp:69] Creating Layer derelu4_1
I0621 00:56:52.092433   388 net.cpp:396] derelu4_1 <- deconv4_1
I0621 00:56:52.092442   388 net.cpp:347] derelu4_1 -> deconv4_1 (in-place)
I0621 00:56:52.092473   388 net.cpp:98] Setting up derelu4_1
I0621 00:56:52.092483   388 net.cpp:105] Top shape: 2 512 40 40 (1638400)
I0621 00:56:52.092489   388 layer_factory.hpp:78] Creating layer deconv4_2
I0621 00:56:52.092500   388 net.cpp:69] Creating Layer deconv4_2
I0621 00:56:52.092506   388 net.cpp:396] deconv4_2 <- deconv4_1
I0621 00:56:52.092514   388 net.cpp:358] deconv4_2 -> deconv4_2
I0621 00:56:52.092524   388 net.cpp:98] Setting up deconv4_2
I0621 00:56:52.182309   388 net.cpp:105] Top shape: 2 512 40 40 (1638400)
I0621 00:56:52.182350   388 layer_factory.hpp:78] Creating layer debn4_2
I0621 00:56:52.182364   388 net.cpp:69] Creating Layer debn4_2
I0621 00:56:52.182374   388 net.cpp:396] debn4_2 <- deconv4_2
I0621 00:56:52.182385   388 net.cpp:347] debn4_2 -> deconv4_2 (in-place)
I0621 00:56:52.182395   388 net.cpp:98] Setting up debn4_2
I0621 00:56:52.182418   388 net.cpp:105] Top shape: 2 512 40 40 (1638400)
I0621 00:56:52.182426   388 layer_factory.hpp:78] Creating layer derelu4_2
I0621 00:56:52.182436   388 net.cpp:69] Creating Layer derelu4_2
I0621 00:56:52.182442   388 net.cpp:396] derelu4_2 <- deconv4_2
I0621 00:56:52.182449   388 net.cpp:347] derelu4_2 -> deconv4_2 (in-place)
I0621 00:56:52.182456   388 net.cpp:98] Setting up derelu4_2
I0621 00:56:52.182463   388 net.cpp:105] Top shape: 2 512 40 40 (1638400)
I0621 00:56:52.182471   388 layer_factory.hpp:78] Creating layer deconv4_3
I0621 00:56:52.182482   388 net.cpp:69] Creating Layer deconv4_3
I0621 00:56:52.182488   388 net.cpp:396] deconv4_3 <- deconv4_2
I0621 00:56:52.182497   388 net.cpp:358] deconv4_3 -> deconv4_3
I0621 00:56:52.182507   388 net.cpp:98] Setting up deconv4_3
I0621 00:56:52.222854   388 net.cpp:105] Top shape: 2 256 40 40 (819200)
I0621 00:56:52.222877   388 layer_factory.hpp:78] Creating layer debn4_3
I0621 00:56:52.222887   388 net.cpp:69] Creating Layer debn4_3
I0621 00:56:52.222895   388 net.cpp:396] debn4_3 <- deconv4_3
I0621 00:56:52.222903   388 net.cpp:347] debn4_3 -> deconv4_3 (in-place)
I0621 00:56:52.222911   388 net.cpp:98] Setting up debn4_3
I0621 00:56:52.222930   388 net.cpp:105] Top shape: 2 256 40 40 (819200)
I0621 00:56:52.222939   388 layer_factory.hpp:78] Creating layer derelu4_3
I0621 00:56:52.222949   388 net.cpp:69] Creating Layer derelu4_3
I0621 00:56:52.222955   388 net.cpp:396] derelu4_3 <- deconv4_3
I0621 00:56:52.222962   388 net.cpp:347] derelu4_3 -> deconv4_3 (in-place)
I0621 00:56:52.222970   388 net.cpp:98] Setting up derelu4_3
I0621 00:56:52.222982   388 net.cpp:105] Top shape: 2 256 40 40 (819200)
I0621 00:56:52.222988   388 layer_factory.hpp:78] Creating layer unpool3
I0621 00:56:52.222997   388 net.cpp:69] Creating Layer unpool3
I0621 00:56:52.223006   388 net.cpp:396] unpool3 <- deconv4_3
I0621 00:56:52.223014   388 net.cpp:396] unpool3 <- pool3_mask
I0621 00:56:52.223026   388 net.cpp:358] unpool3 -> unpool3
I0621 00:56:52.223036   388 net.cpp:98] Setting up unpool3
I0621 00:56:52.223042   388 net.cpp:105] Top shape: 2 256 80 80 (3276800)
I0621 00:56:52.223049   388 layer_factory.hpp:78] Creating layer deconv3_1
I0621 00:56:52.223058   388 net.cpp:69] Creating Layer deconv3_1
I0621 00:56:52.223069   388 net.cpp:396] deconv3_1 <- unpool3
I0621 00:56:52.223093   388 net.cpp:358] deconv3_1 -> deconv3_1
I0621 00:56:52.223103   388 net.cpp:98] Setting up deconv3_1
I0621 00:56:52.245807   388 net.cpp:105] Top shape: 2 256 80 80 (3276800)
I0621 00:56:52.245829   388 layer_factory.hpp:78] Creating layer debn3_1
I0621 00:56:52.245839   388 net.cpp:69] Creating Layer debn3_1
I0621 00:56:52.245847   388 net.cpp:396] debn3_1 <- deconv3_1
I0621 00:56:52.245856   388 net.cpp:347] debn3_1 -> deconv3_1 (in-place)
I0621 00:56:52.245863   388 net.cpp:98] Setting up debn3_1
I0621 00:56:52.245898   388 net.cpp:105] Top shape: 2 256 80 80 (3276800)
I0621 00:56:52.245908   388 layer_factory.hpp:78] Creating layer derelu3_1
I0621 00:56:52.245918   388 net.cpp:69] Creating Layer derelu3_1
I0621 00:56:52.245923   388 net.cpp:396] derelu3_1 <- deconv3_1
I0621 00:56:52.245954   388 net.cpp:347] derelu3_1 -> deconv3_1 (in-place)
I0621 00:56:52.245962   388 net.cpp:98] Setting up derelu3_1
I0621 00:56:52.245970   388 net.cpp:105] Top shape: 2 256 80 80 (3276800)
I0621 00:56:52.245975   388 layer_factory.hpp:78] Creating layer deconv3_2
I0621 00:56:52.245985   388 net.cpp:69] Creating Layer deconv3_2
I0621 00:56:52.245990   388 net.cpp:396] deconv3_2 <- deconv3_1
I0621 00:56:52.246000   388 net.cpp:358] deconv3_2 -> deconv3_2
I0621 00:56:52.246007   388 net.cpp:98] Setting up deconv3_2
I0621 00:56:52.262578   388 net.cpp:105] Top shape: 2 256 80 80 (3276800)
I0621 00:56:52.262595   388 layer_factory.hpp:78] Creating layer debn3_2
I0621 00:56:52.262606   388 net.cpp:69] Creating Layer debn3_2
I0621 00:56:52.262612   388 net.cpp:396] debn3_2 <- deconv3_2
I0621 00:56:52.262620   388 net.cpp:347] debn3_2 -> deconv3_2 (in-place)
I0621 00:56:52.262629   388 net.cpp:98] Setting up debn3_2
I0621 00:56:52.262662   388 net.cpp:105] Top shape: 2 256 80 80 (3276800)
I0621 00:56:52.262672   388 layer_factory.hpp:78] Creating layer derelu3_2
I0621 00:56:52.262679   388 net.cpp:69] Creating Layer derelu3_2
I0621 00:56:52.262686   388 net.cpp:396] derelu3_2 <- deconv3_2
I0621 00:56:52.262693   388 net.cpp:347] derelu3_2 -> deconv3_2 (in-place)
I0621 00:56:52.262701   388 net.cpp:98] Setting up derelu3_2
I0621 00:56:52.262707   388 net.cpp:105] Top shape: 2 256 80 80 (3276800)
I0621 00:56:52.262713   388 layer_factory.hpp:78] Creating layer deconv3_3
I0621 00:56:52.262722   388 net.cpp:69] Creating Layer deconv3_3
I0621 00:56:52.262727   388 net.cpp:396] deconv3_3 <- deconv3_2
I0621 00:56:52.262737   388 net.cpp:358] deconv3_3 -> deconv3_3
I0621 00:56:52.262748   388 net.cpp:98] Setting up deconv3_3
I0621 00:56:52.271365   388 net.cpp:105] Top shape: 2 128 80 80 (1638400)
I0621 00:56:52.271389   388 layer_factory.hpp:78] Creating layer debn3_3
I0621 00:56:52.271412   388 net.cpp:69] Creating Layer debn3_3
I0621 00:56:52.271420   388 net.cpp:396] debn3_3 <- deconv3_3
I0621 00:56:52.271430   388 net.cpp:347] debn3_3 -> deconv3_3 (in-place)
I0621 00:56:52.271437   388 net.cpp:98] Setting up debn3_3
I0621 00:56:52.271469   388 net.cpp:105] Top shape: 2 128 80 80 (1638400)
I0621 00:56:52.271478   388 layer_factory.hpp:78] Creating layer derelu3_3
I0621 00:56:52.271488   388 net.cpp:69] Creating Layer derelu3_3
I0621 00:56:52.271494   388 net.cpp:396] derelu3_3 <- deconv3_3
I0621 00:56:52.271502   388 net.cpp:347] derelu3_3 -> deconv3_3 (in-place)
I0621 00:56:52.271508   388 net.cpp:98] Setting up derelu3_3
I0621 00:56:52.271514   388 net.cpp:105] Top shape: 2 128 80 80 (1638400)
I0621 00:56:52.271522   388 layer_factory.hpp:78] Creating layer unpool2
I0621 00:56:52.271530   388 net.cpp:69] Creating Layer unpool2
I0621 00:56:52.271536   388 net.cpp:396] unpool2 <- deconv3_3
I0621 00:56:52.271544   388 net.cpp:396] unpool2 <- pool2_mask
I0621 00:56:52.271553   388 net.cpp:358] unpool2 -> unpool2
I0621 00:56:52.271561   388 net.cpp:98] Setting up unpool2
I0621 00:56:52.271569   388 net.cpp:105] Top shape: 2 128 160 160 (6553600)
I0621 00:56:52.271574   388 layer_factory.hpp:78] Creating layer deconv2_1
I0621 00:56:52.271584   388 net.cpp:69] Creating Layer deconv2_1
I0621 00:56:52.271589   388 net.cpp:396] deconv2_1 <- unpool2
I0621 00:56:52.271598   388 net.cpp:358] deconv2_1 -> deconv2_1
I0621 00:56:52.271608   388 net.cpp:98] Setting up deconv2_1
I0621 00:56:52.275869   388 net.cpp:105] Top shape: 2 128 160 160 (6553600)
I0621 00:56:52.275883   388 layer_factory.hpp:78] Creating layer debn2_1
I0621 00:56:52.275894   388 net.cpp:69] Creating Layer debn2_1
I0621 00:56:52.275902   388 net.cpp:396] debn2_1 <- deconv2_1
I0621 00:56:52.275909   388 net.cpp:347] debn2_1 -> deconv2_1 (in-place)
I0621 00:56:52.275918   388 net.cpp:98] Setting up debn2_1
I0621 00:56:52.276013   388 net.cpp:105] Top shape: 2 128 160 160 (6553600)
I0621 00:56:52.276024   388 layer_factory.hpp:78] Creating layer derelu2_1
I0621 00:56:52.276036   388 net.cpp:69] Creating Layer derelu2_1
I0621 00:56:52.276042   388 net.cpp:396] derelu2_1 <- deconv2_1
I0621 00:56:52.276063   388 net.cpp:347] derelu2_1 -> deconv2_1 (in-place)
I0621 00:56:52.276072   388 net.cpp:98] Setting up derelu2_1
I0621 00:56:52.276077   388 net.cpp:105] Top shape: 2 128 160 160 (6553600)
I0621 00:56:52.276084   388 layer_factory.hpp:78] Creating layer deconv2_2
I0621 00:56:52.276093   388 net.cpp:69] Creating Layer deconv2_2
I0621 00:56:52.276101   388 net.cpp:396] deconv2_2 <- deconv2_1
I0621 00:56:52.276108   388 net.cpp:358] deconv2_2 -> deconv2_2
I0621 00:56:52.276116   388 net.cpp:98] Setting up deconv2_2
I0621 00:56:52.278234   388 net.cpp:105] Top shape: 2 64 160 160 (3276800)
I0621 00:56:52.278247   388 layer_factory.hpp:78] Creating layer debn2_2
I0621 00:56:52.278259   388 net.cpp:69] Creating Layer debn2_2
I0621 00:56:52.278265   388 net.cpp:396] debn2_2 <- deconv2_2
I0621 00:56:52.278276   388 net.cpp:347] debn2_2 -> deconv2_2 (in-place)
I0621 00:56:52.278285   388 net.cpp:98] Setting up debn2_2
I0621 00:56:52.278378   388 net.cpp:105] Top shape: 2 64 160 160 (3276800)
I0621 00:56:52.278388   388 layer_factory.hpp:78] Creating layer derelu2_2
I0621 00:56:52.278471   388 net.cpp:69] Creating Layer derelu2_2
I0621 00:56:52.278482   388 net.cpp:396] derelu2_2 <- deconv2_2
I0621 00:56:52.278491   388 net.cpp:347] derelu2_2 -> deconv2_2 (in-place)
I0621 00:56:52.278501   388 net.cpp:98] Setting up derelu2_2
I0621 00:56:52.278506   388 net.cpp:105] Top shape: 2 64 160 160 (3276800)
I0621 00:56:52.278513   388 layer_factory.hpp:78] Creating layer unpool1
I0621 00:56:52.278520   388 net.cpp:69] Creating Layer unpool1
I0621 00:56:52.278530   388 net.cpp:396] unpool1 <- deconv2_2
I0621 00:56:52.278538   388 net.cpp:396] unpool1 <- pool1_mask
I0621 00:56:52.278548   388 net.cpp:358] unpool1 -> unpool1
I0621 00:56:52.278556   388 net.cpp:98] Setting up unpool1
I0621 00:56:52.278563   388 net.cpp:105] Top shape: 2 64 320 320 (13107200)
I0621 00:56:52.278569   388 layer_factory.hpp:78] Creating layer deconv1_1
I0621 00:56:52.278578   388 net.cpp:69] Creating Layer deconv1_1
I0621 00:56:52.278584   388 net.cpp:396] deconv1_1 <- unpool1
I0621 00:56:52.278592   388 net.cpp:358] deconv1_1 -> deconv1_1
I0621 00:56:52.278600   388 net.cpp:98] Setting up deconv1_1
I0621 00:56:52.279829   388 net.cpp:105] Top shape: 2 64 320 320 (13107200)
I0621 00:56:52.279842   388 layer_factory.hpp:78] Creating layer debn1_1
I0621 00:56:52.279853   388 net.cpp:69] Creating Layer debn1_1
I0621 00:56:52.279860   388 net.cpp:396] debn1_1 <- deconv1_1
I0621 00:56:52.279867   388 net.cpp:347] debn1_1 -> deconv1_1 (in-place)
I0621 00:56:52.279875   388 net.cpp:98] Setting up debn1_1
I0621 00:56:52.280232   388 net.cpp:105] Top shape: 2 64 320 320 (13107200)
I0621 00:56:52.280302   388 layer_factory.hpp:78] Creating layer derelu1_1
I0621 00:56:52.280310   388 net.cpp:69] Creating Layer derelu1_1
I0621 00:56:52.280316   388 net.cpp:396] derelu1_1 <- deconv1_1
I0621 00:56:52.280323   388 net.cpp:347] derelu1_1 -> deconv1_1 (in-place)
I0621 00:56:52.280331   388 net.cpp:98] Setting up derelu1_1
I0621 00:56:52.280338   388 net.cpp:105] Top shape: 2 64 320 320 (13107200)
I0621 00:56:52.280344   388 layer_factory.hpp:78] Creating layer deconv1_2
I0621 00:56:52.280352   388 net.cpp:69] Creating Layer deconv1_2
I0621 00:56:52.280359   388 net.cpp:396] deconv1_2 <- deconv1_1
I0621 00:56:52.280367   388 net.cpp:358] deconv1_2 -> deconv1_2
I0621 00:56:52.280376   388 net.cpp:98] Setting up deconv1_2
I0621 00:56:52.281599   388 net.cpp:105] Top shape: 2 64 320 320 (13107200)
I0621 00:56:52.281615   388 layer_factory.hpp:78] Creating layer debn1_2
I0621 00:56:52.281623   388 net.cpp:69] Creating Layer debn1_2
I0621 00:56:52.281630   388 net.cpp:396] debn1_2 <- deconv1_2
I0621 00:56:52.281638   388 net.cpp:347] debn1_2 -> deconv1_2 (in-place)
I0621 00:56:52.281646   388 net.cpp:98] Setting up debn1_2
I0621 00:56:52.282001   388 net.cpp:105] Top shape: 2 64 320 320 (13107200)
I0621 00:56:52.282016   388 layer_factory.hpp:78] Creating layer derelu1_2
I0621 00:56:52.282023   388 net.cpp:69] Creating Layer derelu1_2
I0621 00:56:52.282040   388 net.cpp:396] derelu1_2 <- deconv1_2
I0621 00:56:52.282048   388 net.cpp:347] derelu1_2 -> deconv1_2 (in-place)
I0621 00:56:52.282057   388 net.cpp:98] Setting up derelu1_2
I0621 00:56:52.282063   388 net.cpp:105] Top shape: 2 64 320 320 (13107200)
I0621 00:56:52.282068   388 layer_factory.hpp:78] Creating layer seg-score-voc
I0621 00:56:52.282079   388 net.cpp:69] Creating Layer seg-score-voc
I0621 00:56:52.282085   388 net.cpp:396] seg-score-voc <- deconv1_2
I0621 00:56:52.282094   388 net.cpp:358] seg-score-voc -> seg-score
I0621 00:56:52.282101   388 net.cpp:98] Setting up seg-score-voc
I0621 00:56:52.282299   388 net.cpp:105] Top shape: 2 2 320 320 (409600)
I0621 00:56:52.282312   388 layer_factory.hpp:78] Creating layer seg-score_seg-score-voc_0_split
I0621 00:56:52.282323   388 net.cpp:69] Creating Layer seg-score_seg-score-voc_0_split
I0621 00:56:52.282330   388 net.cpp:396] seg-score_seg-score-voc_0_split <- seg-score
I0621 00:56:52.282337   388 net.cpp:358] seg-score_seg-score-voc_0_split -> seg-score_seg-score-voc_0_split_0
I0621 00:56:52.282351   388 net.cpp:358] seg-score_seg-score-voc_0_split -> seg-score_seg-score-voc_0_split_1
I0621 00:56:52.282359   388 net.cpp:98] Setting up seg-score_seg-score-voc_0_split
I0621 00:56:52.282367   388 net.cpp:105] Top shape: 2 2 320 320 (409600)
I0621 00:56:52.282373   388 net.cpp:105] Top shape: 2 2 320 320 (409600)
I0621 00:56:52.282379   388 layer_factory.hpp:78] Creating layer seg-accuracy
I0621 00:56:52.282388   388 net.cpp:69] Creating Layer seg-accuracy
I0621 00:56:52.282394   388 net.cpp:396] seg-accuracy <- seg-score_seg-score-voc_0_split_0
I0621 00:56:52.282402   388 net.cpp:396] seg-accuracy <- seg-label_data_2_split_0
I0621 00:56:52.282412   388 net.cpp:358] seg-accuracy -> seg-accuracy
I0621 00:56:52.282420   388 net.cpp:98] Setting up seg-accuracy
I0621 00:56:52.282428   388 net.cpp:105] Top shape: 1 1 1 1 (1)
I0621 00:56:52.282434   388 layer_factory.hpp:78] Creating layer seg-loss
I0621 00:56:52.282449   388 net.cpp:69] Creating Layer seg-loss
I0621 00:56:52.282455   388 net.cpp:396] seg-loss <- seg-score_seg-score-voc_0_split_1
I0621 00:56:52.282462   388 net.cpp:396] seg-loss <- seg-label_data_2_split_1
I0621 00:56:52.282472   388 net.cpp:358] seg-loss -> seg-loss
I0621 00:56:52.282481   388 net.cpp:98] Setting up seg-loss
I0621 00:56:52.282490   388 net.cpp:105] Top shape: 1 1 1 1 (1)
I0621 00:56:52.282495   388 net.cpp:111]     with loss weight 1
I0621 00:56:52.282512   388 net.cpp:172] seg-loss needs backward computation.
I0621 00:56:52.282518   388 net.cpp:174] seg-accuracy does not need backward computation.
I0621 00:56:52.282524   388 net.cpp:172] seg-score_seg-score-voc_0_split needs backward computation.
I0621 00:56:52.282531   388 net.cpp:172] seg-score-voc needs backward computation.
…
